blstm.model (npz, 661685 bytes, 34 tensors)

blstm/1/w0 f4 [128, 36]
-1.7538009 0.8390176 1.5406274 -1.5463413 0.51229864 -1.024013 0.24012268 -1.9656113
1.0974491 -0.64001256 -0.124691844 -0.78210145 1.2994086 -0.64533037 -0.021859532 0.3372359
0.6116626 -0.41768718 1.1106346 -0.24505688 0.32525742 0.6718252 -0.2851868 0.046504695
1.7908088 -1.1349635 -0.8332647 -0.8599405 -0.15428978 2.1330836 1.5644475 0.3983811
-0.69836444 -0.9919502 0.13595879 -0.63288605 -1.2039284 0.4637826 1.506021 -2.3884087
0.9647274 -0.65195066 0.90874267 -0.3534173 2.1054306 0.38603848 -1.1565217 -1.0340772
0.35873428 -0.016305286 0.7763888 -2.2626667 1.3575022 1.403463 -0.30922002 0.5472914
-0.5328329 0.2338633 -0.45618266 0.5250734 -0.7177723 1.0794897 0.38782808 -2.4086616
-0.12319379 0.7192205 -0.56151646 -0.5010222 0.8887476 0.7808648 -0.84465295 -0.4034526
0.40952036 1.2360935 2.0813148 0.67860097 -0.39294562 0.28332612 -0.5934107 -0.12387799
0.3006807 0.20523484 -1.5922848 -4.056882 0.68551457 2.5185192 0.7342463 0.148246
-0.64476013 0.8810871 -0.96755993 0.33216676 -0.14798124 0.7478022 -0.96099234 -0.88758963
-0.16132647 -1.1402608 0.9913235 -0.8173551 0.9427884 -0.5268751 0.15917705 0.21428128
1.0291848 0.08706197 -0.8140267 1.5286224 0.41507217 1.0986694 -0.0667335 -0.7055492
0.5633185 -0.7822955 -3.8347557 1.6543727 0.9890832 -1.722146 -0.88354546 0.33914217
0.9965988 0.9769843 -0.69264066 -0.5993798 -0.2566267 0.09383002 -0.33583024 1.9461927
2.1294715 -1.254002 -1.7848768 -0.07841866 -0.13778716 -1.4801285 -0.35558724 0.496945
1.0426118 -0.55596936 -1.3447555 -0.060574982 1.5106546 -0.25553867 -1.071989 0.006867907
0.04490076 -0.036259014 -0.023968631 -0.8802267 0.31827664 0.43980664 -0.5143146 0.09343239
-1.1537311 -0.19164896 -0.84390736 -1.0971771 -0.51771325 0.7206291 -0.47032133 -1.149866
-0.15007852 1.1506997 -0.89854217 0.44428316 -1.7360349 -0.2247535 -0.019643739 -0.90359664
-0.55026335 -0.3224428 -0.34307426 1.8216299 -0.71605754 0.8883429 -2.6182034 0.7922041
-1.4170395 0.90231794 0.44730243 0.5797716 -0.6069805 0.7473373 -0.09315175 -0.099182606
0.4847377 0.10430852 -0.045280635 1.3341098 -1.7184883 -0.4928686 -4.074327 -0.28882548
0.23875302 0.45291904 0.065562405 1.0358626 0.70385987 -0.9527645 -0.4664166 -0.14573066
-0.6058472 -0.37848365 0.83289534 1.9500669 0.2779014 0.21123216 -1.0555657 0.8752961
1.0202608 -0.27080828 -1.1638011 -0.71599066 0.82066154 -0.37390947 0.6131602 -0.4748393
0.85605216 0.35098594 1.0018357 -0.93940985 0.35778624 -3.7541535 -0.41219884 -0.26517335
-0.876922 -0.54705906 0.6043514 -0.58548146 0.9531254 -0.48287588 1.6324074 -0.6850422
1.8300321 -0.5708684 0.8890516 -0.3369173 0.60437906 -0.33298662 0.003424785 0.061629236
-0.34868163 -0.4056223 0.9383426 0.75471866 1.0658071 0.3511156 0.8343927 0.7708614
0.8601338 -1.2905864 -0.019353833 -0.253828 -0.7802591 0.35993046 -3.5809445 -0.78325325
00000000: 8c7c e0bf dcc9 563f 4733 c53f 83ee c5bf
00000010: 0126 033f dc12 83bf b8e2 753e 2799 fbbf
00000020: 3679 8c3f ddd7 23bf 705e ffbd cd37 48bf
00000030: 0553 a63f 5f34 25bf c312 b3bc 2faa ac3e
00000040: ec95 1c3f 18db d5be 4629 8e3f 31f0 7abe
00000050: 2488 a63e bcfc 2b3f 0104 92be b57b 3e3d
00000060: 3939 e53f 7c46 91bf d650 55bf 1025 5cbf
00000070: 24fe 1dbe 7184 0840 d13f c83f 9cf8 cb3e
00000080: 03c8 32bf 73f0 7dbf c838 0b3e d204 22bf
00000090: 531a 9abf ea74 ed3e 4cc5 c03f b0db 18c0
000000a0: 60f8 763f 3de6 26bf 5ca3 683f 1df3 b4be
000000b0: 60bf 0640 d6a6 c53e e708 94bf a45c 84bf
000000c0: 05ac b73e aa92 85bc 6bc1 463f 88cf 10c0
000000d0: a2c2 ad3f ada4 b33f 1652 9ebe 4a1b 0c3f
000000e0: bd67 08bf dc79 6f3e c690 e9be 366b 063f
000000f0: edbf 37bf b82c 8a3f 6791 c63e 8327 1ac0
00000100: 074d fcbd d61e 383f 8bbf 0fbf fe42 00bf
00000110: f684 633f c1e6 473f 2d3b 58bf 5791 cebe
00000120: a7ac d13e 5038 9e3f 4334 0540 cbb8 2d3f
00000130: 2b30 c9be 1f10 913e c3e9 17bf beb3 fdbd
00000140: d2f2 993e 1529 523e fdcf cbbf fad1 81c0
00000150: e27d 2f3f 6b2f 2140 91f7 3b3f cdcd 173e
00000160: 000f 25bf ed8e 613f 02b2 77bf c311 aa3e
00000170: 6588 17be f76f 3f3f 9803 76bf 1339 63bf
00000180: c432 25be 11f4 91bf 60c7 7d3f 2f3e 51bf
00000190: 955a 713f 49e1 06bf 4fff 223e 8d6c 5b3e
000001a0: 54bc 833f 8c4d b23d 0e64 50bf e6a9 c33f
000001b0: 5784 d43e 33a1 8c3f 93ab 88bd df9e 34bf
000001c0: a435 103f 8544 48bf a36c 75c0 7cc2 d33f
000001d0: 8e34 7d3f 486f dcbf 0930 62bf 0ba4 ad3e
000001e0: 1921 7f3f a51b 7a3f e650 31bf f470 19bf
000001f0: 9364 83be f429 c03d f1f1 abbe d81c f93f
00000200: 4349 0840 2383 a0bf d876 e4bf f699 a0bd
00000210: 1418 0dbe da74 bdbf 880f b6be 936f fe3e
00000220: 4e74 853f 0254 0ebf f320 acbf 791d 78bd
00000230: 215d c13f f7d5 82be f036 89bf 2e0c e13b
00000240: dce9 373d 5584 14bd dd59 c4bc 8956 61bf
00000250: 28f5 a23e 562e e13e 1faa 03bf 7b59 bf3d
00000260: 76ad 93bf a03f 44be 500a 58bf 4d70 8cbf
00000270: db88 04bf 267b 383f f5cd f0be cf2e 93bf
00000280: 2fae 19be 214a 933f dc06 66bf 1579 e33e
00000290: 6436 debf c825 66be e8eb a0bc 1c52 67bf
000002a0: 0fde 0cbf 3917 a5be 6ea7 afbe 2b2b e93f
000002b0: 8c4f 37bf 716a 633f a590 27c0 e3cd 4a3f
000002c0: 8d61 b5bf 4ffe 663f d304 e53e e96b 143f
000002d0: 1363 1bbf 7f51 3f3f 58c6 bebd 4020 cbbd
000002e0: 8a2f f83e b59f d53d 3078 39bd 1cc4 aa3f
000002f0: 6df7 dbbf 4659 fcbe e360 82c0 efe0 93be
00000300: ac7b 743e 01e5 e73e 9545 863d 2597 843f
00000310: 2930 343f 60e8 73bf 28ce eebe 6b3a 15be
00000320: cd18 1bbf 9cc8 c1be a138 553f cb9b f93f
00000330: 1849 8e3e 3e4d 583e c71c 87bf 6813 603f
00000340: e897 823f 62a7 8abe 6ff7 94bf 2a4b 37bf
00000350: e016 523f 1071 bfbe 11f8 1c3f 231e f3be
00000360: 3c26 5b3f 6eb4 b33e 273c 803f 2a7d 70bf
00000370: c22f b73e 0d44 70c0 ba0b d3be cdc4 87be
00000380: f67d 60bf 100c 0cbf c6b6 1a3f 1de2 15bf
00000390: 0700 743f 823b f7be baf2 d03f ed5e 2fbf
000003a0: 7e3e ea3f 6e24 12bf e398 633f 6d80 acbe
000003b0: 96b8 1a3f 397d aabe 5c72 603b f06e 7c3d
000003c0: 6686 b2be baad cfbe 3837 703f 3e35 413f
000003d0: 5e6c 883f 6dc5 b33e c39a 553f 2c57 453f
000003e0: bb31 5c3f ef31 a5bf ee8b 9ebc bef5 81be
000003f0: 0fbf 47bf ce48 b83e 322e 65c0 4983 48bf

blstm/0/w4 f4 [128, 128]
-0.5523117 -0.1999316 0.71665585 0.8237208 -0.14676356 -1.1886231 -0.20367378 -0.46180114
-0.8328033 0.7266311 0.801741 1.5197402 0.83322895 0.26735526 0.23063257 0.7470266
0.31686348 -1.8467233 -0.4534438 0.42619866 -1.1393782 0.28059062 0.31542736 1.2787421
0.66409874 0.8611084 -0.4619813 -1.7205626 1.1971571 -1.0797498 -0.6058984 0.61476547
-1.2194289 0.8913719 -0.5064944 -1.2433219 -2.3112876 0.9360866 0.7109429 1.0910407
-1.0147622 0.4246686 0.9551279 0.15293653 -1.07654 2.699571 -0.3321063 0.39062855
0.41104817 -0.55999905 1.4202517 -1.2178458 -0.73981434 0.6702472 0.6068884 0.96941376
-0.84003466 0.1685011 -0.16473435 1.1243579 -0.16188028 1.7456452 1.1498709 -0.54214215
-0.9409224 -0.59247303 -0.9093159 -0.76720273 -0.870419 0.20624977 -0.41044652 -0.2622255
0.8790907 -1.0018792 1.1054047 -1.350697 -0.53997195 -0.694689 0.00021014141 -1.2600952
-0.85997325 -0.6664966 -0.24494973 0.0804426 0.864313 -0.60169584 0.31776074 1.1250386
0.21847853 -1.5151852 0.51329815 -0.63087034 1.8182297 0.49507028 -0.041537832 0.048941102
-0.706416 1.8693838 -0.21127686 -0.3754394 0.5761662 0.2930457 1.186462 -2.1016393
2.2371945 1.2833673 0.39847684 -0.052755713 1.5527122 -0.5301398 0.20044507 0.84925103
0.09005674 1.275009 1.3732575 2.1076512 -1.2145282 0.671841 0.5115453 -2.2537487
0.10126967 -1.7505368 -0.01118765 -0.14631768 -0.62701774 0.064997956 1.1984118 0.33432543
-0.1819593 1.3069694 -0.25372273 -0.585165 -0.11757487 -0.97339875 0.071556896 1.7656206
-0.33608076 0.71571136 -0.5717446 1.0384156 -0.051027555 -0.7089449 -1.451469 -0.0014283891
-0.3139765 1.8918598 0.016325798 -0.34917626 0.25558144 -0.576355 0.94557714 0.5349717
1.0493112 0.971803 -0.047455374 -0.5410324 0.4109118 0.43223998 -1.3133731 0.38606915
-0.98870736 2.6083689 1.2453154 -0.4754 1.0010905 -0.06527838 0.60143876 2.3684185
0.49574706 0.99509925 1.0790365 0.99416655 0.023226963 1.7666999 0.8261416 0.67101544
1.5737655 0.35778677 0.49887246 0.7749441 -0.5282016 0.0063096653 -0.1134266 0.9284146
-0.73826116 1.0636342 -0.61686486 0.65029246 1.0702245 0.07794252 -0.18414442 0.39586243
-0.9501205 1.208874 -0.79009855 -0.21941121 -1.253655 0.15838753 -0.45969808 0.7117571
-0.17681299 -1.0518054 -0.19514878 -0.26390865 0.35508373 -0.49621615 -0.14310932 -0.8197682
0.27292794 -0.09882254 0.48254633 -0.90130323 -1.0234461 0.8058174 1.6384672 0.56059647
-0.54121995 -2.2600844 1.4234799 1.2409518 1.480849 0.79192 -0.08793738 -0.89250094
-0.025358299 0.067889616 -0.017866656 -0.4189727 -0.81610703 0.87065554 0.14324217 0.34376916
0.4292312 1.1430023 -0.14662741 -0.4912008 -0.30785784 0.6917993 -0.720861 -0.7280045
0.010826443 0.069712386 0.7579616 0.659014 0.37267566 -0.460142 -0.7397141 -0.5245744
-0.03265247 -0.2863106 0.7966097 0.65921086 0.55729705 -1.5186652 -0.06674974 -0.05589615
00000000: 4d64 0dbf dfba 4cbe c276 373f 5edf 523f
00000010: 3049 16be cd24 98bf dc8f 50be 3371 ecbe
00000020: 9932 55bf 7f04 3a3f e63e 4d3f d986 c23f
00000030: 7e4e 553f cae2 883e f22a 6c3e 233d 3f3f
00000040: ee3b a23e 6e61 ecbf c929 e8be b636 da3e
00000050: 25d7 91bf 93a9 8f3e b27f a13e d2ad a33f
00000060: 6002 2a3f 9a71 5c3f d088 ecbe 653b dcbf
00000070: 723c 993f 3e35 8abf 281c 1bbf 4561 1d3f
00000080: 3f16 9cbf f330 643f 9ea9 01bf 2c25 9fbf
00000090: 23ec 13c0 5fa3 6f3f 5b00 363f 39a7 8b3f
000000a0: bae3 81bf 2a6e d93e 4383 743f 659b 1c3e
000000b0: 10cc 89bf c5c5 2c40 d609 aabe 7700 c83e
000000c0: e874 d23e 195c 0fbf cfca b53f 5fe2 9bbf
000000d0: 7964 3dbf 5295 2b3f 0a5d 1b3f 802b 783f
000000e0: 830c 57bf 8d8b 2c3e 1fb0 28be f6ea 8f3f
000000f0: f2c3 25be 4d71 df3f f82e 933f d4c9 0abf
00000100: 4ae0 70bf 50ac 17bf edc8 68bf 6667 44bf
00000110: c8d3 5ebf 2433 533e 0c26 d2be 6c42 86be
00000120: 170c 613f 943d 80bf e77d 8d3f a4e3 acbf
00000130: 9a3b 0abf 23d7 31bf 6859 5c39 cd4a a1bf
00000140: 3527 5cbf 859f 2abf 1ad4 7abe 17bf a43d
00000150: 9e43 5d3f bd08 1abf 89b1 a23e 4401 903f
00000160: d6b8 5f3e 97f1 c1bf 8267 033f b880 21bf
00000170: c0bb e83f da79 fd3e 9323 2abd 7776 483d
00000180: aed7 34bf f847 ef3f f658 58be 9839 c0be
00000190: a17f 133f 160a 963e fddd 973f 4281 06c0
000001a0: 322e 0f40 6145 a43f 2805 cc3e 6016 58bd
000001b0: 46bf c63f 3eb7 07bf 7941 4d3e 8468 593f
000001c0: ab6f b83d 7f33 a33f e7c6 af3f c2e3 0640
000001d0: a975 9bbf c6fd 2b3f a2f4 023f 6b3d 10c0
000001e0: 7966 cf3d 9711 e0bf 684c 37bc 4dd4 15be
000001f0: 3c84 20bf a61d 853d 8f65 993f b42c ab3e
00000200: 8a53 3abe c64a a73f f2e7 81be 60cd 15bf
00000210: 18cb f0bd a930 79bf 6c8c 923d dbff e13f
00000220: c712 acbe dc38 373f db5d 12bf cdea 843f
00000230: 4502 51bd 6a7d 35bf bcc9 b9bf c938 bbba
00000240: 87c1 a0be 7628 f23f aebd 853c 3bc7 b2be
00000250: 92db 823e 008c 13bf 5811 723f e8f3 083f
00000260: d44f 863f 15c8 783f 9160 42bd 1981 0abf
00000270: 0863 d23e 8f4e dd3e 9c1c a8bf dbaa c53e
00000280: ed1b 7dbf 84ef 2640 7f66 9f3f a167 f3be
00000290: bc23 803f acb0 85bd e4f7 193f 2b94 1740
000002a0: 8fd2 fd3e d3be 7e3f de1d 8a3f b381 7e3f
000002b0: 7946 be3c 3923 e23f 047e 533f abc7 2b3f
000002c0: 2671 c93f d42f b73e 366c ff3e bd62 463f
000002d0: 3838 07bf 4fc1 ce3b 354c e8bd 94ac 6d3f
000002e0: affe 3cbf 2a25 883f dbea 1dbf 9179 263f
000002f0: 1efd 883f 54a0 9f3d 5b90 3cbe 7bae ca3e
00000300: 193b 73bf 62bc 9a3f e643 4abf 55ad 60be
00000310: c477 a0bf 5730 223e 8c5d ebbe b735 363f
00000320: 770e 35be 8fa1 86bf 15d5 47be 091f 87be
00000330: 89cd b53e 0b10 febe 408b 12be 54dc 51bf
00000340: 36bd 8b3e 7963 cabd 5010 f73e cfbb 66bf
00000350: 4800 83bf 0d4a 4e3f 4bb9 d13f 4083 0f3f
00000360: 648d 0abf 39a5 10c0 9734 b63f 82d7 9e3f
00000370: 768c bd3f 45bb 4a3f 8318 b4bd f17a 64bf
00000380: 35bc cfbc b609 8b3d 185d 92bc 9783 d6be
00000390: 64ec 50bf 48e3 5e3f 13ae 123e 8302 b03e
000003a0: 31c4 db3e e64d 923f 7f25 16be ac7e fbbe
000003b0: 8b9f 9dbe c219 313f 598a 38bf 815e 3abf
000003c0: 6561 313c 5ec5 8e3d c509 423f 24b5 283f
000003d0: 58cf be3e bb97 ebbe e75d 3dbf 824a 06bf
000003e0: 99be 05bd 4e97 92be 9dee 4b3f 0bc2 283f
000003f0: 05ab 0e3f 9f63 c2bf 16b4 88bd 5df3 64bd

blstm/0/w6 f4 [128, 128]
-1.0542723 0.942472 -0.21578653 1.1454469 1.4451122 -0.038903855 -2.133225 -0.94189835
2.3672936 0.029384386 -0.38525558 1.4172004 0.612083 0.24796852 -1.1191676 0.050705045
0.3585401 0.44269866 -0.97628033 0.2101545 -0.19399324 -0.42562303 1.1476487 -0.17771208
0.73396116 -0.6169499 0.1589863 -0.2983806 0.6955844 0.88903403 -1.1556864 -1.5144814
-0.14848343 0.19771034 -0.23306757 -0.047461748 -0.9366528 -0.9847611 0.99772173 0.77346313
0.014543962 -0.8634493 -0.44482872 -0.36950982 -0.28106815 0.035521198 0.53831226 0.7302177
0.057739504 1.3256363 0.6820825 0.058114626 -1.1690636 0.56893456 -1.2651526 0.19607303
-0.4561758 -0.73633534 0.43559435 -0.41633743 -1.5718403 0.728851 -0.23192555 0.58365065
0.43578827 -0.620662 -0.9212156 1.1443173 1.0755442 0.3384775 0.15268292 -0.18586154
-0.6164844 -0.961151 0.70564926 0.14622554 -0.91517127 -0.46741468 -0.6037179 -0.14332594
-0.20752 -0.005242283 0.86467654 -0.36955833 0.8497253 -1.0791118 0.95764846 -1.6136587
0.19482912 1.5491418 -1.4328328 -0.55221343 0.3306208 -0.06620918 0.93719864 0.08709968
1.023488 0.017473055 0.05981867 0.07466336 0.1505356 -0.3863784 -0.29164913 0.8172047
-0.23061849 1.0750341 0.16379514 -1.0024924 1.5005257 0.4702831 1.3467768 -0.31074953
0.1972812 -0.9827701 -0.22553594 0.1617069 -0.5036347 -0.27354896 0.32183507 0.20885393
-0.27549747 -0.99692804 0.8042044 -0.5659416 0.41568792 -0.03210426 0.028401079 0.5264859
0.003217463 -0.051509917 0.97232383 -0.07238817 -0.6594535 0.01055806 -0.7219735 -1.2718246
1.1277664 -1.0405267 0.4752293 -0.04897852 -0.41376042 1.2864938 -0.38007808 0.9605905
0.9024111 0.2666038 0.75193846 -0.3522678 0.4850658 0.8383907 -0.23518822 -0.020870162
-0.3552379 0.5882874 0.02410195 0.1027509 -0.80926126 -0.5978195 0.02390297 -1.18633
-0.0182112 -0.031588934 -0.7135339 0.05725816 -1.2428755 -0.40274325 0.924037 0.31349868
-0.8489464 -0.4156083 -0.04384182 -0.4481958 -0.6899471 -1.3279035 -1.0434096 0.3338314
-1.2959164 -0.04561854 -0.12802465 -0.25419897 0.5684934 -0.5583688 0.9985591 1.6267349
1.6576173 0.018265883 0.1814164 -2.0486615 -0.54080147 -0.4932709 -1.6543721 0.7946316
0.81125665 -0.3100576 0.6665139 -0.37516922 -0.75470036 -1.2573975 -0.38338226 -1.0779836
1.5883056 0.33282658 -1.1560884 -0.02946221 -0.02691664 0.9416609 -0.40802586 0.18829927
0.20463945 -0.75984794 -0.68226045 0.77288944 1.2328616 0.13565668 0.3641598 -0.02026792
0.92076725 0.81834453 0.8319783 -0.4853359 -0.25264934 -0.3545487 0.23123278 -0.34610364
-0.94889545 0.70878506 0.29673612 0.69680053 1.1767759 -0.03898465 -0.3766369 0.42496365
0.20973822 0.5771546 0.21049058 -0.9263398 2.255162 -0.9592971 0.12667058 -0.25186744
0.41218448 0.18487337 0.08208164 -0.76353383 -0.24918538 0.054353174 -0.40892965 0.18293212
0.05038209 0.10758856 -0.35722923 0.31165305 -0.7035512 0.67061585 -0.8273398 -1.0875828
00000000: 65f2 86bf d845 713f 25f7 5cbe 019e 923f
00000010: 70f9 b83f a659 1fbd c286 08c0 4020 71bf
00000020: bd81 1740 86b7 f03c 3840 c5be d366 b53f
00000030: 79b1 1c3f 76eb 7d3e e240 8fbf 18b0 4f3d
00000040: 9192 b73e 66a9 e23e 82ed 79bf be32 573e
00000050: 2aa6 46be 43eb d9be 27e6 923f 28fa 35be
00000060: e1e4 3b3f 6ef0 1dbf 4ecd 223e 58c5 98be
00000070: d211 323f bc97 633f 88ed 93bf 87da c1bf
00000080: 0a0c 18be 9474 4a3e 44a9 6ebe 4067 42bd
00000090: 7ac8 6fbf 4e19 7cbf b16a 7f3f ae01 463f
000000a0: cc49 6e3c 030b 5dbf 97c0 e3be 6430 bdbe
000000b0: 2ae8 8fbe ad7e 113d d5ce 093f 8cef 3a3f
000000c0: 4280 6c3d 73ae a93f f59c 2e3f 9a09 6e3d
000000d0: e0a3 95bf b2a5 113f 85f0 a1bf 5ec7 483e
000000e0: e08f e9be 7980 3cbf 3906 df3e 2e2a d5be
000000f0: 1032 c9bf fb95 3a3f e47d 6dbe 216a 153f
00000100: a41f df3e b4e3 1ebf c9d4 6bbf fd78 923f
00000110: 6fab 893f ec4c ad3e e958 1c3e 7d52 3ebe
00000120: ecd1 1dbf fe0d 76bf 6ea5 343f 26bc 153e
00000130: aa48 6abf fa50 efbe 428d 1abf 09c4 12be
00000140: 1f80 54be 75c7 abbb 715b 5d3f c036 bdbe
00000150: 9987 593f 5620 8abf 7328 753f 5e8c cebf
00000160: 4981 473e 474a c63f 1167 b7bf dc5d 0dbf
00000170: 2147 a93e ae98 87bd 40ec 6f3f 5161 b23d
00000180: a801 833f a723 8f3c 6c04 753d 1be9 983d
00000190: 0126 1a3e 64d3 c5be 0953 95be 5434 513f
000001a0: 4127 6cbe b89a 893f eab9 273e ac51 80bf
000001b0: 3a11 c03f f2c8 f03e 2f63 ac3f 901a 9fbe
000001c0: 1504 4a3e d296 7bbf e5f2 66be 7e96 253e
000001d0: 34ee 00bf 9c0e 8cbe 91c7 a43e cedd 553e
000001e0: 010e 8dbe ad36 7fbf 57e0 4d3f 8ce1 10bf
000001f0: 0cd5 d43e c27f 03bd 61a9 e83c c8c7 063f
00000200: 12dc 523b 10fc 52bd 37ea 783f 4040 94bd
00000210: f2d1 28bf b7fb 2c3c 41d3 38bf 26cb a2bf
00000220: a65a 903f fb2f 85bf 4151 f33e b39d 48bd
00000230: 68d8 d3be d4ab a43f 9899 c2be 42e9 753f
00000240: 6a04 673f 4b80 883e 0a7f 403f 725c b4be
00000250: 8b5a f83e c6a0 563f 2ed5 70be e7f7 aabc
00000260: bee1 b5be 019a 163f 7471 c53c 106f d23d
00000270: bf2b 4fbf b30a 19bf 29d0 c33c a9d9 97bf
00000280: a82f 95bc 6663 01bd 28aa 36bf 8887 6a3d
00000290: 8b16 9fbf 5d34 cebe b08d 6c3f e682 a03e
000002a0: 8d54 59bf 9cca d4be 7b93 33bd eb79 e5be
000002b0: 60a0 30bf bef8 a9bf 728e 85bf f3eb aa3e
000002c0: 97e0 a5bf 82da 3abd e518 03be 5e26 82be
000002d0: c988 113f 42f1 0ebf 92a1 7f3f d938 d03f
000002e0: ce2c d43f 55a2 953c 39c5 393e 451d 03c0
000002f0: f771 0abf 018e fcbe 77c2 d3bf fa6c 4b3f
00000300: 84ae 4f3f dfbf 9ebe a8a0 2a3f 2e16 c0be
00000310: 0b34 41bf 67f2 a0bf ae4a c4be 5efb 89bf
00000320: 994d cb3f 3f68 aa3e b4fa 93bf bc5a f1bc
00000330: 4980 dcbc b010 713f c4e8 d0be 86d1 403e
00000340: 018d 513e 6585 42bf 9fa8 2ebf 15dc 453f
00000350: 69ce 9d3f 96e9 0a3e 2773 ba3e e908 a6bc
00000360: 67b7 6b3f 077f 513f 88fc 543f f27d f8be
00000370: 415b 81be 6887 b5be 49c8 6c3e 7f34 b1be
00000380: d0ea 72bf f072 353f cced 973e 8561 323f
00000390: 98a0 963f 5eae 1fbd 8dd6 c0be d694 d93e
000003a0: 9ec5 563e 67c0 133f d88a 573e 9b24 6dbf
000003b0: 9354 1040 7f94 75bf efb5 013e c5f4 80be
000003c0: d809 d33e 724f 3d3e 6b1a a83d f476 43bf
000003d0: 742a 7fbe 6fa1 5e3d 3a5f d1be 8f52 3b3e
000003e0: 735d 4e3d 6457 dc3d c0e6 b6be fd90 9f3e
000003f0: ee1b 34bf 7bad 2b3f 8bcc 53bf ea35 8bbf

blstm/0/b3 f4 [128]
-0.8778888 -0.60206515 -0.740161 -0.83244246 -1.0101678 -0.766273 -0.8834132 -0.8051041
-0.40922597 -0.5152566 -0.5735539 -0.70278937 -0.8443658 -0.8392577 -0.9319375 -0.8643637
-0.75629914 -0.5525203 -0.8373593 -0.6266532 -0.89471525 -0.7247359 -0.7911581 -0.8145821
-0.8151347 -0.61188334 -0.7395036 -0.8279894 -0.59053075 -0.75116855 -0.7368908 -0.74778736
-0.9678204 -0.6907657 -0.58187276 -0.87087643 -0.55504525 -0.6669226 -0.8826345 -0.67368436
-0.5459174 -0.768588 -0.5841433 -0.7533159 -0.76961815 -0.7343938 -0.71163315 -0.8534301
-0.7425445 -0.6681439 -0.92584825 -0.66474485 -0.7760965 -1.0102943 -0.7480677 -0.51640594
-0.87495863 -0.7812666 -0.7981934 -0.9107574 -0.9257863 -0.8660812 -0.31616494 -0.785433
-0.7337043 -0.7905784 -0.16295551 -0.26163948 -0.870347 -0.89604473 -0.6145827 -0.42802292
-0.95633394 -0.68735635 -0.578845 -0.8717531 -0.89201236 -0.63502884 -0.81451637 -0.3686484
-0.93270236 -0.9133118 -0.84625435 -0.81756514 -0.7576375 -0.78829557 -0.45753855 -0.9220964
-0.8781629 -0.5865165 -0.5168958 -0.71528566 -0.48842052 -0.75282955 -0.685151 -0.5281748
-0.808222 -0.93471354 -0.44490668 -0.84352237 -0.5138721 -0.7838276 -0.48900446 -0.71159554
-0.48846033 -0.70734346 -0.8324723 -0.6588063 -0.37361333 -0.7408168 -0.6445632 -0.74173915
-0.8661329 -0.6146936 -0.4517839 -0.48203388 -0.5872389 -0.999252 -0.67485964 -0.62883633
-0.8921596 -0.68059903 -0.88765454 -0.95904565 -0.4564363 -0.8210778 -0.7329112 -0.6780814
00000000: 52bd 60bf f120 1abf 317b 3dbf f31a 55bf
00000010: 2e4d 81bf 782a 44bf 5e27 62bf 4d1b 4ebf
00000020: 1186 d1be dbe7 03bf 6ed4 12bf 01ea 33bf
00000030: 5b28 58bf 98d9 56bf 7593 6ebf f046 5dbf
00000040: d29c 41bf f871 0dbf 2e5d 56bf 586c 20bf
00000050: 0f0c 65bf 4b88 39bf 5689 4abf 7488 50bf
00000060: abac 50bf 63a4 1cbf 1c50 3dbf 1df7 53bf
00000070: 062d 17bf 954c 40bf e0a4 3cbf fe6e 3fbf
00000080: 14c3 77bf 05d6 30bf 9df5 14bf c2f1 5ebf
00000090: 7217 0ebf 71bb 2abf 56f4 61bf 9476 2cbf
000000a0: 3ec1 0bbf 2fc2 44bf 6a8a 15bf 50d9 40bf
000000b0: b205 45bf 3b01 3cbf 972d 36bf 657a 5abf
000000c0: 6517 3ebf 7b0b 2bbf 6404 6dbf b82c 2abf
000000d0: 43ae 46bf 5351 81bf 5d81 3fbf 2e33 04bf
000000e0: 4afd 5fbf 1701 48bf 6756 4cbf 6627 69bf
000000f0: 5500 6dbf 7fb7 5dbf 5fe0 a1be 2312 49bf
00000100: 0cd4 3bbf 5963 4abf cfdd 26be 9cf5 85be
00000110: 10cf 5ebf 3063 65bf 4b55 1dbf d225 dbbe
00000120: 4dd2 74bf 96f6 2fbf 302f 14bf 362b 5fbf
00000130: ec5a 64bf 4091 22bf 2584 50bf 7cbf bcbe
00000140: 95c5 6ebf cdce 69bf 20a4 58bf f34b 51bf
00000150: 88f4 41bf bdcd 49bf 7e42 eabe 820e 6cbf
00000160: 49cf 60bf f225 16bf 4853 04bf f61c 37bf
00000170: 4112 fabe 70b9 40bf 0e66 2fbf 7736 07bf
00000180: a3e7 4ebf 6349 6fbf cfca e3be 15f1 57bf
00000190: 1f8d 03bf eda8 48bf cb5e fabe 202b 36bf
000001a0: 7917 fabe 7614 35bf e81c 55bf 88a7 28bf
000001b0: 3f4a bfbe 2ba6 3dbf 1802 25bf 9ee2 3dbf
000001c0: e3ba 5dbf 8f5c 1dbf 3850 e7be 25cd f6be
000001d0: 4a55 16bf fbce 7fbf 9ac3 2cbf 6bfb 20bf
000001e0: 9264 64bf bd3b 2ebf 543d 63bf 0484 75bf
000001f0: 05b2 e9be 2832 52bf 12a0 3bbf be96 2dbf

blstm/0/w3 f4 [128, 36]
-0.0022125295 -0.2772213 0.417985 -0.24501306 0.003712812 -0.27100217 -0.07980578 -0.9945971
-0.5965956 0.3888253 0.12169248 -0.04285033 -0.028512226 0.25373077 0.30157134 -0.12977052
-0.39547637 0.14384764 -0.30024725 0.18062878 0.3214261 0.13401058 0.49856424 -0.64120346
0.15784743 0.003668462 0.12504853 0.011742814 -0.4181452 -0.0027651712 -0.12962389 0.18545416
-1.3563142 -0.23219016 -0.06858368 -0.1430082 0.113584474 0.017431121 0.3670422 -0.030899413
0.030456305 -0.38788334 0.073495895 0.5199725 0.554308 -0.18308724 -0.40401313 1.2519667
-0.02777448 -0.8933864 0.48578575 0.48737958 -1.7152611 0.27059832 -0.6627438 0.26017332
-0.20528549 -0.51317537 -0.041943364 0.022586511 0.9429629 0.27290812 0.1367768 0.20561898
-0.36293682 -0.11882197 0.42323503 0.3244912 -0.12021277 0.14293289 0.33471435 -0.2836224
-0.8076453 0.9757647 -0.7077915 0.43086573 0.6987384 -0.015688123 0.49101973 -1.4626365
0.17745592 0.5927644 -0.30412847 1.3219465 -0.042404935 -0.36105186 0.2590101 0.3501589
0.29362598 0.4046748 -0.3951807 0.37384754 -0.5158019 -0.23223583 0.4155281 -0.7287565
0.58208597 -1.3972362 -0.33491576 -0.062826104 0.13763857 0.82570636 -1.3650197 0.018517803
0.45792517 0.55525666 0.035075206 0.40091848 -0.63939106 -1.0741247 0.03450619 0.07830004
-0.8223139 0.1015059 -0.6885611 0.43332654 -0.39311168 -0.6398413 -0.1828577 -0.14032876
0.033237554 -0.54617184 0.7902197 -0.35963324 -0.042109735 -0.58644754 0.10827283 0.04164551
0.6889364 0.021555724 -0.863469 -0.048350498 0.2645105 -0.055820156 0.16779077 0.06627942
-1.1973265 0.01394783 0.021445401 0.32423857 0.3686725 -0.3145843 -0.48349035 0.09720662
-0.66228145 -1.5923047 -1.4010664 -0.48759088 -0.460341 0.18830311 -0.73575455 1.501385
-0.5438306 -0.2794651 -0.063798465 -0.14071943 -0.21720922 0.43499792 -0.8343171 0.0420328
-0.09565929 0.374561 -0.2985873 0.9049668 0.3377838 -0.18778558 -0.22981064 -0.24254486
-1.1338279 0.75480115 0.28324533 0.2892915 -0.14689618 0.06897364 0.2213638 0.5266685
-0.045825247 0.44903904 -1.9110157 -0.14182395 -0.029054806 0.9607251 -0.081482954 0.7217929
-1.5223016 -1.0505177 0.09965986 -0.72985685 1.4317259 0.2017086 1.1770478 -0.32095635
0.31462204 -0.23206146 0.043451987 -0.7776624 -0.10043476 0.90607655 0.12756482 -0.108574785
0.06309161 -0.755658 -0.12645008 -0.23717155 0.080618106 -0.86411214 -0.4612507 -0.8821634
-0.0506454 -0.059507668 -0.59606117 -0.0976827 0.7400372 0.16173632 -0.385616 -0.16093546
0.3495665 0.29236406 0.76927245 0.2768443 0.38686886 -0.16106057 0.06253578 -0.01359765
0.39329025 -1.6879431 -0.70226127 -0.027377248 -0.10874516 0.22622229 -0.08266343 -0.34839097
0.36627662 -0.67285454 0.31003967 0.385668 -0.26390406 -0.23737912 -0.04560743 -0.10613511
0.30957654 -0.062971026 0.40054712 -0.5452719 0.38230547 -0.60218424 0.36458468 0.22564791
-0.8502046 -0.075542316 -0.3014768 0.8214491 0.281579 -1.3864107 1.074319 -0.020088052
00000000: 1600 11bb f3ef 8dbe 2102 d63e b4e4 7abe
00000010: a652 733b ccc0 8abe 3671 a3bd ea9d 7ebf
00000020: 7dba 18bf 1c14 c73e e839 f93d d483 2fbd
00000030: 7992 e9bc 00e9 813e 8f67 9a3e 90e2 04be
00000040: e17b cabe cc4c 133e 02ba 99be c0f6 383e
00000050: f691 a43e 123a 093e d043 ff3e e925 24bf
00000060: c2a2 213e 946a 703b b90c 003e ef64 403c
00000070: 2117 d6be e037 35bb 20bc 04be b2e7 3d3e
00000080: b49b adbf 42c3 6dbe 9a75 8cbd be70 12be
00000090: fa9e e83d b6cb 8e3c f5ec bb3e c420 fdbc
000000a0: 807f f93c a598 c6be 0485 963d eb1c 053f
000000b0: 21e7 0d3f 397b 3bbe cfda cebe 7240 a03f
000000c0: 4e87 e3bc f9b4 64bf e9b8 f83e d189 f93e
000000d0: ad8d dbbf dd8b 8a3e 94a9 29bf 7035 853e
000000e0: 5c36 52be 765f 03bf cecc 2bbd 5907 b93c
000000f0: 0466 713f 9dba 8b3e 380f 0c3e c88d 523e
00000100: dbd2 b9be ef58 f3bd 43b2 d83e b623 a63e
00000110: 1d32 f6bd 005d 123e ae5f ab3e f536 91be
00000120: d8c1 4ebf b7cb 793f d331 35bf 6f9a dc3e
00000130: 85e0 323f 6184 80bc f066 fb3e ac37 bbbf
00000140: 01b7 353e 68bf 173f bab6 9bbe 8b35 a93f
00000150: ccb0 2dbd cadb b8be f99c 843e 0748 b33e
00000160: 2556 963e 8931 cf3e 2055 cabe f268 bf3e
00000170: 980b 04bf 3bcf 6dbe 19c0 d43e c98f 3abf
00000180: 9603 153f a3d8 b2bf 147a abbe f9aa 80bd
00000190: 20f1 0c3e 7e61 533f f7b8 aebf a6b2 973c
000001a0: 2b75 ea3e 4d25 0e3f 05ab 0f3d 3045 cd3e
000001b0: 22af 23bf eb7c 89bf 5d56 0d3d c55b a03d
000001c0: 2a83 52bf 53e2 cf3d 8a45 30bf fadc dd3e
000001d0: ef45 c9be a4cc 23bf 0d3f 3bbe 58b2 0fbe
000001e0: 1a24 083d ebd1 0bbf d74b 4a3f d921 b8be
000001f0: 427b 2cbd 6d21 16bf 25be dd3d 7b94 2a3d
00000200: 235e 303f a195 b03c 4e0c 5dbf 2c0b 46bd
00000210: ec6d 873e ada3 64bd 58d1 2b3e 81bd 873d
00000220: ff41 99bf 7085 643c 44ae af3c 9902 a63e
00000230: a4c2 bc3e 3211 a1be 0c8c f7be 4414 c73d
00000240: 478b 29bf a4d0 cbbf 2556 b3bf 83a5 f9be
00000250: d1b1 ebbe 88d2 403e 695a 3cbf 622d c03f
00000260: 7b38 0bbf 0d16 8fbe c5a8 82bd c118 10be
00000270: 186c 5ebe 0cb8 de3e ce95 55bf 962a 2c3d
00000280: 05e9 c3bd 76c6 bf3e 6fe0 98be e7ab 673f
00000290: 00f2 ac3e dd4a 40be 7b53 6bbe ae5d 78be
000002a0: 4621 91bf a63a 413f 8805 913e 041e 943e
000002b0: f46b 16be 0d42 8d3d 31ad 623e bfd3 063f
000002c0: 41b3 3bbd 72e8 e53e 2a9c f4bf 4c3a 11be
000002d0: 5804 eebc 15f2 753f 89e0 a6bd 6bc7 383f
000002e0: c7da c2bf 5d77 86bf 781a cc3d e6d7 3abf
000002f0: cb42 b73f b38c 4e3e 81a9 963f 6454 a4be
00000300: 2416 a13e 85a1 6dbe b6fa 313d e214 47bf
00000310: bdb0 cdbd a2f4 673f 5aa0 023e 755c debd
00000320: 2d36 813d cd72 41bf 217c 01be 19dd 72be
00000330: 1b1b a53d 7436 5dbf 0d29 ecbe 76d5 61bf
00000340: 8d71 4fbd 50be 73bd 7797 18bf de0d c8bd
00000350: 1473 3d3f 359e 253e 766f c5be 44cc 24be
00000360: 61fa b23e beb0 953e 0aef 443f 89be 8d3e
00000370: ad13 c63e 10ed 24be c212 803d aec8 5ebc
00000380: 575d c93e 850e d8bf 65c7 33bf 4046 e0bc
00000390: c8b5 debd d1a6 673e 724b a9bd 4d60 b2be
000003a0: 9c88 bb3e 3240 2cbf 85bd 9e3e 4776 c53e
000003b0: 6f1e 87be 8313 73be dbce 3abd 5d5d d9bd
000003c0: d180 9e3e f4f6 80bd 8314 cd3e f096 0bbf
000003d0: 8bbd c33e bf28 1abf d8aa ba3e 3f10 673e
000003e0: 02a7 59bf eeb5 9abd 2b5b 9abe 7d4a 523f
000003f0: 1f2b 903e e875 b1bf 4983 893f b38f a4bc

blstm/1/w2 f4 [128, 36]
-0.71238345 -1.5489142 2.540542 0.7237574 0.8253927 -1.6154089 0.092374004 -1.1215341
1.0949063 0.5183013 -0.08395021 -1.6736295 0.4594056 -2.135962 1.3391939 1.3922572
-0.16216 -1.2771941 0.4094523 -1.683422 0.7817475 0.00059674477 -1.1987401 0.15879095
0.72016925 -3.1479394 1.0195048 1.6094867 -1.0770888 0.9835038 0.27198014 0.21052063
-0.5624151 -0.43510988 -0.06540172 -0.3131137 -0.16054423 0.009597952 1.433314 -0.47462198
0.638294 0.63833416 -0.8007176 -0.22171399 3.2302735 -0.83365154 -0.8795205 -0.63654816
-0.22889711 1.112348 0.9000068 -1.7302177 0.005629725 0.040025454 -1.0704796 0.27888465
1.3640761 0.60247856 -3.2770772 3.4022486 0.56089807 0.27834085 1.448699 0.96713686
-0.143499 -0.09617219 -0.7115038 0.060601283 1.2369597 -0.3863352 -3.4779923 2.3857381
0.41527036 -1.0578959 -1.0501624 0.10838323 1.2994763 3.6456094 -0.124558434 0.2508423
0.6950796 -1.6213417 0.9243322 2.2466123 0.055805042 -0.28072003 0.43997854 1.3892586
-1.0701071 3.3068476 -0.83231324 -0.3971084 0.58791655 0.08954077 1.6453159 0.4329197
0.87682545 0.76054406 0.9090021 1.6077989 -0.2016615 3.7751997 -0.43118933 0.40976295
0.011822233 0.21754958 1.311448 -0.19333297 -0.6269089 -0.06747644 -0.80450124 -0.93292785
-1.4754096 0.47062647 0.89954275 0.3340991 1.0612068 -0.92182034 -0.78540045 -1.1265429
-0.08761687 0.2891776 -0.6496046 0.93949586 -2.6914256 1.6648941 -0.27858648 0.38710132
0.12760603 -0.30309668 0.13793139 0.19879177 -0.19615856 1.0448154 0.2930159 1.9176857
-5.313519 0.87136024 -0.19257921 -0.7869411 0.16258329 -0.10364339 1.5544384 -0.057309654
-0.50105244 1.946757 4.017791 0.4779691 -0.59482116 -0.7872659 -1.988551 -0.19940995
-0.7898776 1.6110152 0.65979415 -0.2637795 -1.2736211 1.9857302 1.241194 -1.8446817
0.44919163 0.6765052 -1.6596302 0.9861535 -1.365568 0.44980696 0.19871299 1.6092297
-2.5458908 1.7394434 1.3882918 -2.5214283 0.030669926 -0.19838916 -0.28963315 0.0065628863
-0.9652002 0.33346826 0.11066198 2.7956753 -1.2867327 0.9551042 -0.25359443 1.0360535
-0.477896 2.1250627 -2.339191 0.6728204 0.047111776 -0.43024582 0.89901865 -2.4256694
-2.3678377 1.5919267 0.83126265 0.48048776 -0.91346365 2.0325806 -1.3873391 0.2892863
0.13884671 -0.3353999 -0.6181354 0.21808243 -0.8024236 0.7348485 -0.12219398 -0.5783165
-0.42091683 2.6989884 -1.4576405 0.3838859 0.07418509 -0.3124172 0.5222117 0.15003736
-0.9879674 -0.06665835 -0.052504405 -0.5928725 -0.22170942 1.044785 0.86684304 0.8784004
-1.4638788 0.338342 0.07625535 1.7969129 -1.2718842 0.5076613 -0.90422577 0.32084602
-0.28056896 -0.04790824 0.16756251 0.8491455 0.0073647127 -1.1375326 -0.69390976 0.8272042
-1.0886891 0.5365229 0.2794269 0.014245047 0.6072202 -1.1192151 -0.10309977 0.704063
-0.76850885 -0.52976096 -0.40691346 -0.22450615 -0.35730496 0.4635405 -0.6597079 0.435754
00000000: c35e 36bf d242 c6bf 3d98 2240 2a48 393f
00000010: f04c 533f b8c5 cebf 952e bd3d 6e8e 8fbf
00000020: e425 8c3f 65af 043f 16ee abbd 7e39 d6bf
00000030: 3637 eb3e 9ab3 08c0 b56a ab3f 7c35 b23f
00000040: 450d 26be 197b a3bf bba3 d13e 5f7a d7bf
00000050: 9b20 483f dd6e 1c3a 5170 99bf 189a 223e
00000060: 035d 383f d777 49c0 227f 823f a903 ce3f
00000070: 0cde 89bf e8c6 7b3f fb40 8b3e b892 573e
00000080: 70fa 0fbf b9c6 debe 56f1 85bd 7050 a0be
00000090: b565 24be ba40 1d3c d576 b73f a701 f3be
000000a0: 3c67 233f de69 233f d4fb 4cbf fe08 63be
000000b0: cdbc 4e40 306a 55bf 4128 61bf d2f4 22bf
000000c0: 0164 6abe 6b61 8e3f d866 663f c677 ddbf
000000d0: 8e79 b83b bbf1 233d 7a05 89bf f8c9 8e3e
000000e0: 0c9a ae3f 093c 1a3f a2bb 51c0 71be 5940
000000f0: 0497 0f3f b182 8e3e f86e b93f 4896 773f
00000100: 67f1 12be edf5 c4bd 1d25 36bf 0d39 783d
00000110: b254 9e3f bacd c5be 6d97 5ec0 efaf 1840
00000120: 519e d43e 2269 87bf b96b 86bf 07f8 dd3d
00000130: 3d55 a63f aa51 6940 7e18 ffbd 676e 803e
00000140: bdf0 313f 2088 cfbf 09a1 6c3f 7fc8 0f40
00000150: d493 643d 89ba 8fbe de44 e13e 3ad3 b13f
00000160: 45f9 88bf 64a3 5340 7b12 55bf cb51 cbbe
00000170: b381 163f 2761 b73d b699 d23f a7a7 dd3e
00000180: a277 603f 04b3 423f 5db4 683f 5bcc cd3f
00000190: 5a80 4ebe df9c 7140 d9c4 dcbe 73cc d13e
000001a0: 0ab2 413c 51c5 5e3e 87dd a73f 14f9 45be
000001b0: 1a7d 20bf 1631 8abd cbf3 4dbf 5cd4 6ebf
000001c0: 39da bcbf f4f5 f03e 6f48 663f 0a0f ab3e
000001d0: a0d5 873f 6bfc 6bbf 0110 49bf 8f32 90bf
000001e0: 7970 b3bd 160f 943e 7d4c 26bf cd82 703f
000001f0: 5140 2cc0 401b d53f e3a2 8ebe 2532 c63e
00000200: 28ab 023e 7d2f 9bbe e33d 0d3e 1290 4b3e
00000210: cadd 48be 83bc 853f 2e06 963e ba76 f53f
00000220: 5908 aac0 7711 5f3f 7c33 45be f974 49bf
00000230: 3c7c 263e fc42 d4bd d6f7 c63f 87bd 6abd
00000240: f944 00bf 552f f93f be91 8040 5eb8 f43e
00000250: 3346 18bf 428a 49bf d788 febf 1f32 4cbe
00000260: 6b35 4abf bf35 ce3f 45e8 283f 1b0e 87be
00000270: 0406 a3bf 682c fe3f 72df 9e3f 881e ecbf
00000280: 72fc e53e 722f 2d3f c36e d4bf 8e74 7c3f
00000290: efca aebf 194d e63e 6b7b 4b3e 3dfb cd3f
000002a0: e0ef 22c0 15a6 de3f 8cb3 b13f 155f 21c0
000002b0: 7f3f fb3c 8726 4bbe cc4a 94be 7b0d d73b
000002c0: 5c17 77bf 5abc aa3e c0a2 e23d 58ec 3240
000002d0: a8b3 a4bf b581 743f 21d7 81be 679d 843f
000002e0: c9ae f4be 0701 0840 4eb5 15c0 f53d 2c3f
000002f0: 47f8 403d 2e49 dcbe 1626 663f 2b3e 1bc0
00000300: a78a 17c0 41c4 cb3f a1cd 543f 7e02 f63e
00000310: c1d8 69bf cd15 0240 5494 b1bf 551d 943e
00000320: d52d 0e3e 89b9 abbe 1f3e 1ebf 0051 5f3e
00000330: a26b 4dbf 081f 3c3f d640 fabd 8d0c 14bf
00000340: 6982 d7be 3abc 2c40 f793 babf b18c c43e
00000350: 5aee 973d 26f5 9fbe aaaf 053f 65a3 193e
00000360: 6eeb 7cbf 2c84 88bd dc0e 57bd 7ec6 17bf
00000370: cb07 63be 84bb 853f 6de9 5d3f d9de 603f
00000380: 6160 bbbf 2a3b ad3e c42b 9c3d 3e01 e63f
00000390: 1acd a2bf 17f6 013f 577b 67bf ee45 a43e
000003a0: bca6 8fbe 6e3b 44bd 8295 2b3e 9961 593f
000003b0: b053 f13b ab9a 91bf 12a4 31bf a8c3 533f
000003c0: 2a5a 8bbf 9159 093f 0b11 8f3e 0f64 693c
000003d0: c872 1b3f 7142 8fbf f925 d3bd 793d 343f
000003e0: ffbc 44bf 6a9e 07bf f656 d0be f1e4 65be
000003f0: adf0 b6be 2e55 ed3e 9ee2 28bf 261b df3e

blstm/0/w2 f4 [128, 36]
0.83102673 0.22311905 0.9061187 -0.5492762 -0.06666495 0.6437749 -2.2996352 -3.6623724
1.1878988 1.4979378 1.2816577 0.31299496 0.4567595 -0.09583103 -0.07094263 1.2678939
0.46487254 0.39795178 -1.8856775 -0.8359636 2.116832 1.506184 0.04383178 0.049214948
-0.12365646 -0.5942052 -0.011289332 0.5176103 1.1760982 -0.42732146 -0.2521107 -2.8732786
4.07733 0.6330697 0.12869014 -0.13110174 0.8080316 2.104908 -2.2589474 3.9299915
8.492486 0.08156819 0.5599894 -1.0120643 0.86754483 1.3620796 -0.45336607 -1.4670511
-0.40513355 2.0789213 -0.8705948 0.49236044 3.1782622 -0.52326065 -1.3580142 -0.10146298
-0.1831754 0.22877058 -0.89789927 -0.9324099 1.3546897 1.4568822 -0.7383721 0.6183197
2.1634276 -0.49633518 -0.73954374 -0.015184218 -0.24163985 -0.649625 -0.5595322 -0.10266656
-0.543149 -0.58316 -1.295333 -0.77881944 -0.13372207 0.7839555 -0.15109585 2.9052782
-0.36328182 -3.9586654 1.4176546 -0.35208246 0.4750442 1.5010511 0.31679383 1.6612105
-0.4565939 0.79226506 -0.66613126 0.6155971 -1.213537 -1.9886662 0.58586884 0.3037944
-0.33866847 1.4286704 -0.45937237 1.5166968 0.61334556 -0.63014954 -0.075146705 -0.4535879
0.5798108 -1.9083278 0.01720247 0.88191575 -0.6461004 0.34175003 -0.20272209 0.30996773
2.3307579 -1.1817611 1.2224401 0.27701172 -0.3185674 -0.19256413 4.969009 0.06911812
-0.8817002 -0.9542208 0.3896471 0.58467126 1.6772625 0.28131938 -0.4630261 1.037898
0.22042087 -1.5794796 1.8767341 0.25870737 -0.07161496 -0.55918604 0.058356 0.28447106
0.066827215 0.21757609 0.12289636 0.29466656 -0.7691613 -1.7077482 1.4158605 0.19740239
1.4905461 -0.4976593 -2.8405428 0.41033983 0.7757158 1.3389935 0.46962664 -0.803675
0.09073086 1.910165 -1.2008827 0.8493635 1.5093604 -0.22530992 -1.2436535 0.32720473
0.76379126 -1.5177718 -0.12769711 -0.46982577 -0.15873922 0.57688785 -1.0823792 -0.4523287
0.9326469 0.77976143 0.12199938 0.18307666 0.66237015 -0.46205246 -0.41155046 0.015867816
1.1693861 -1.1266147 -2.9311664 0.40340227 1.569535 0.23017995 0.07042351 0.5020262
-1.5343081 2.4813316 -0.5364923 1.1106308 -0.6490383 0.29828024 0.66887814 -0.00084034447
-0.23808427 1.4757118 0.3782848 0.65792614 -0.78367674 1.8013465 1.1463268 0.19424188
-0.19847143 -0.25854182 0.34125355 0.072720826 0.11880499 1.072775 -0.33164123 0.07150579
-0.2518015 2.4370978 1.295571 -0.8294175 0.52384144 -0.28800708 1.829904 -0.2427401
0.7100896 -1.6728123 0.25513864 -0.13183005 0.5483916 -0.32703492 3.9981863 0.8098057
-0.28879753 -4.5939727 -1.1441509 0.97839016 0.98624927 0.17535412 0.6112933 -0.43149024
-0.15757994 -0.8555672 1.448677 0.02578986 -1.7123957 -0.295429 0.15414953 0.13401274
0.58577937 -0.1486088 0.45195624 0.103990644 0.22941844 -0.29498968 1.1637434 0.3216276
-1.4685171 -0.76189715 0.4128865 0.5449548 1.0683502 4.470991 0.017252197 -0.3672387
00000000: 2bbe 543f 5279 643e 65f7 673f 5d9d 0cbf
00000010: a287 88bd 6fce 243f 392d 13c0 4f64 6ac0
00000020: 110d 983f 6dbc bf3f 5c0d a43f e040 a03e
00000030: 62dc e93e 0f43 c4bd 5f4a 91bd 594a a23f
00000040: c603 ee3e 56c0 cb3e e15d f1bf b601 56bf
00000050: 2d7a 0740 a3ca c03f f488 333d 9d95 493d
00000060: 993f fdbd d51d 18bf e4f6 38bc 1c82 043f
00000070: 638a 963f e1c9 dabe a714 81be cce3 37c0
00000080: 7d79 8240 db10 223f 59c7 033e 893f 06be
00000090: 29db 4e3f d0b6 0640 9892 10c0 fb84 7b40
000000a0: 39e1 0741 390d a73d 775b 0f3f 538b 81bf
000000b0: 6b17 5e3f a058 ae3f 991f e8be 55c8 bbbf
000000c0: aa6d cfbe 0c0d 0540 4ddf 5ebf ab16 fc3e
000000d0: a668 4b40 69f4 05bf 69d3 adbf d3cb cfbd
000000e0: 5592 3bbe d642 6a3e badc 65bf 6ab2 6ebf
000000f0: 7966 ad3f 1e7b ba3f f405 3dbf 334a 1e3f
00000100: 9975 0a40 a51f febe bd52 3dbf 3ac7 78bc
00000110: 7070 77be d34d 26bf 813d 0fbf d842 d2bd
00000120: d00b 0bbf f949 15bf 79cd a5bf b660 47bf
00000130: 70ee 08be 4fb1 483f dfb8 1abe 14f0 3940
00000140: 1300 babe c65a 7dc0 b575 b53f 2744 b4be
00000150: fe38 f33e 7122 c03f cd32 a23e 8ca2 d43f
00000160: adc6 e9be e2d1 4a3f 9487 2abf c697 1d3f
00000170: 2e55 9bbf 9d8c febf 80fb 153f f18a 9b3e
00000180: f465 adbe acde b63f db32 ebbe 1f23 c23f
00000190: 3704 1d3f 7b51 21bf 84e6 99bd ac3c e8be
000001a0: 7b6e 143f 1644 f4bf 32ec 8c3c 3bc5 613f
000001b0: d666 25bf dcf9 ae3e 6196 4fbe 17b4 9e3e
000001c0: 232b 1540 f343 97bf eb78 9c3f 7bd4 8d3e
000001d0: 441b a3be 882f 45be 1f02 9f40 cd8d 8d3d
000001e0: 1bb7 61bf d047 74bf d37f c73e 04ad 153f
000001f0: 8ab0 d63f 1809 903e c211 edbe d7d9 843f
00000200: 02b6 613e 632c cabf d338 f03f 4b75 843e
00000210: ddaa 92bd d126 0fbf b306 6f3d 31a6 913e
00000220: b5dc 883d 44cc 5e3e 16b1 fb3d 89de 963e
00000230: c1e7 44bf 7e97 dabf eb3a b53f da23 4a3e
00000240: 37ca be3f 33cd febe 74cb 35c0 1018 d23e
00000250: 5095 463f 2464 ab3f e772 f03e a5bd 4dbf
00000260: 1ad1 b93d 4980 f43f 86b6 99bf e36f 593f
00000270: b932 c13f a5b7 66be 0a30 9fbf 6187 a73e
00000280: d387 433f 5946 c2bf 08c3 02be 018d f0be
00000290: 898c 22be ecae 133f 678b 8abf a197 e7be
000002a0: f2c1 6e3f 729e 473f d0da f93d 7378 3b3e
000002b0: 1791 293f 2492 ecbe beb6 d2be 39fd 813c
000002c0: 72ae 953f e934 90bf 3b98 3bc0 be8a ce3e
000002d0: 86e6 c83f 4bb4 6b3e 343a 903d ca84 003f
000002e0: 3564 c4bf 23ce 1e40 8f57 09bf 2629 8e3f
000002f0: 6027 26bf 30b8 983e 993b 2b3f 904a 5cba
00000300: 5dcc 73be 20e4 bc3f 8cae c13e d96d 283f
00000310: 0a9f 48bf 8692 e63f d6ba 923f 58e7 463e
00000320: 183c 4bbe 985f 84be c9b8 ae3e a8ee 943d
00000330: 0850 f33d b150 893f e1cc a9be a171 923d
00000340: 20ec 80be 69f9 1b40 45d5 a53f b554 54bf
00000350: 791a 063f aa75 93be 4b3a ea3f dc90 78be
00000360: 6fc8 353f b71e d6bf 88a1 823e 75fe 06be
00000370: 6463 0c3f 1f71 a7be 49e2 7f40 6d4f 4f3f
00000380: 45dd 93be d301 93c0 8973 92bf c777 7a3f
00000390: d57a 7c3f 0890 333e b87d 1c3f 4aec dcbe
000003a0: a35c 21be 7406 5bbf 3f6e b93f 4245 d33c
000003b0: c82f dbbf 7842 97be 60d9 1d3e a33a 093e
000003c0: a3f5 153f e82c 18be cf66 e73e 0cf9 d43d
000003d0: abec 6a3e e308 97be 8bf5 943f 5fac a43e
000003e0: 5ef8 bbbf b10b 43bf dc65 d33e 2882 0b3f
000003f0: b3bf 883f 5c12 8f40 7b54 8d3c b606 bcbe

blstm/1/w5 f4 [128, 128]
-0.42096683 -0.94409335 0.3043904 0.47034886 0.83518356 -0.60307467 0.71980745 0.80024713
-1.066509 0.1591772 0.4657044 0.3280386 0.37947717 -0.035403382 1.00858 -1.5538534
0.30731857 1.5551611 1.9455855 0.098193705 -1.2899749 0.92098486 -1.4922559 -1.7839223
-0.06045319 -0.45272124 1.5243703 -0.26671186 -2.4294415 -0.5133058 -0.6551161 -0.071704015
0.23466976 0.33780342 -0.4813154 -0.49088198 0.030571477 -0.16497445 -1.981809 1.4363809
1.2197567 -0.32815686 -0.5593904 -0.16605426 -0.020051206 -0.17595232 -2.1829379 0.16332929
-0.010773625 0.15028338 0.92908376 0.75949776 1.5158772 0.4169398 -0.48614478 1.6421334
-0.53644747 0.17965844 -1.7379297 0.5144161 0.8978759 -1.9271847 -0.8125905 -0.994028
-0.8139916 1.1498578 1.1857213 0.54953474 -0.9094822 0.19719769 0.06299021 0.14733002
-1.0724849 -1.4211037 0.006735574 0.16480021 -0.36894712 0.21357574 -0.60187936 -1.1345502
-0.4325182 1.3341783 1.1474985 -1.0729947 -0.7860957 -0.66311425 1.2465028 0.9957607
0.70101744 0.49435976 0.14390358 -0.22212912 0.538848 0.7490883 0.83893245 0.53252447
-1.4815618 -0.3883568 1.4750729 -0.39248136 -0.45309645 -0.34351036 -0.0868273 -1.1721673
3.3733813e-06 0.31741464 0.6542427 1.209579 0.37883064 -0.34834346 -0.0033408336 -1.130989
-0.2636675 -0.38113368 1.2969726 -1.1931778 1.3684814 0.19580972 -0.43794748 -1.5157071
1.5323433 -0.77612495 0.08438998 -1.2068789 -1.1865567 -0.16613474 0.34313807 0.61742026
1.5310162 -0.35567412 0.9135238 -0.23560467 1.3600241 0.5965751 0.0009872857 -1.2681079
-0.24125564 0.5343478 -1.5021628 1.2541826 1.2067771 -0.24725759 -1.2269137 -0.77546614
0.38570943 1.7371982 -0.00043104426 -0.24797276 -2.1110418 2.020263 -0.23460287 1.5358356
-0.7757752 0.7351231 -0.17152207 0.02091334 0.07199022 0.058658767 -1.007523 -1.1167313
0.39243004 0.5082351 0.6934879 -0.84105444 0.5798662 0.39686063 0.3250255 -0.09898306
-0.024632463 1.0209963 0.5643382 0.7131125 1.3956596 0.8324744 0.8912499 -0.47434837
0.12280584 0.28052297 0.96713966 -2.3788095 -1.6607865 0.40211433 -2.6401286 0.106796704
0.134289 -1.4237964 -1.3460116 0.4078676 2.7928772 0.6850249 1.0413165 0.40133134
0.42274526 -0.9090983 -0.10381809 0.91648847 -0.04671772 0.9143669 0.3215819 -0.6578564
-0.37191585 0.99736744 -0.38844332 0.6510288 -0.49603307 -0.1492345 -1.0050318 0.4036055
-0.9083379 -0.16422543 0.33734706 1.3095016 -0.39373654 0.6720286 -0.5283269 1.3039184
-0.93084013 0.6171251 2.1629357 -0.7470074 -1.8788558 1.3087994 -1.6641481 0.66983783
1.1979245 -0.1844269 1.1053581 -1.0939099 0.6748351 1.1666206 -0.62780064 0.22497882
-0.43212396 -1.894374 -0.8164567 -0.34583443 -0.3472934 0.18452659 0.1930809 -0.003834682
0.17720428 0.48656046 -0.3719396 0.58051527 1.7613739 -1.7493126 -1.7453086 -1.4499183
-0.76996684 0.957414 0.45109534 1.3984945 -1.2687249 -1.1286172 1.3104274 -0.30590668
00000000: f788 d7be 1ab0 71bf 0fd9 9b3e 91d1 f03e
00000010: 97ce 553f 1a63 1abf 4d45 383f ffdc 4c3f
00000020: 5e83 88bf 59ff 223e cf70 ee3e adf4 a73e
00000030: d54a c23e 2303 11bd 2619 813f abe4 c6bf
00000040: dc58 9d3e 850f c73f f208 f93f c819 c93d
00000050: e61d a5bf aac5 6b3f 3e02 bfbf 9157 e4bf
00000060: c49d 77bd 14cb e7be 911e c33f 758e 88be
00000070: f87b 1bc0 0268 03bf b0b5 27bf 8ed9 92bd
00000080: 454d 703e 92f4 ac3e f96e f6be e254 fbbe
00000090: 0971 fa3c 10ef 28be ebab fdbf 54db b73f
000000a0: fd20 9c3f 2d04 a8be 3634 0fbf 210a 2abe
000000b0: 6d42 a4bc d82c 34be 41b5 0bc0 cb3f 273e
000000c0: dc83 30bc e3e3 193e 6fd8 6d3f 726e 423f
000000d0: 4408 c23f 2279 d53e f8e7 f8be 6d31 d23f
000000e0: 9f54 09bf 62f8 373e 7b74 debf c6b0 033f
000000f0: 32db 653f fdad f6bf ee05 50bf 9e78 7ebf
00000100: c161 50bf 8a2e 933f b7c5 973f 4fae 0c3f
00000110: d3d3 68bf 31ee 493e 0301 813d aedd 163e
00000120: 2f47 89bf bae6 b5bf 17b6 dc3b 63c1 283e
00000130: a3e6 bcbe 99b3 5a3e c414 1abf f138 91bf
00000140: 0773 ddbe 5bc6 aa3f 3be1 923f e457 89bf
00000150: 913d 49bf dbc1 29bf 678d 9f3f 2cea 7e3f
00000160: e175 333f b91c fd3e 765b 133e d175 63be
00000170: f1f1 093f 40c4 3f3f 47c4 563f 8653 083f
00000180: d1a3 bdbf b4d6 c6be 30cf bc3f 51f3 c8be
00000190: 42fc e7be 97e0 afbe 83d2 b1bd 9409 96bf
000001a0: 4062 6236 2c84 a23e 737c 273f 7cd3 9a3f
000001b0: 17f6 c13e 135a b2be e3f1 5abb 3fc4 90bf
000001c0: 6dff 86be f423 c3be 3303 a63f 0dba 98bf
000001d0: 662a af3f 5882 483e a73a e0be b102 c2bf
000001e0: d323 c43f 20b0 46bf a7d4 ac3d 027b 9abf
000001f0: 17e1 97bf 3a1f 2abe cbaf af3e 410f 1e3f
00000200: 57f8 c33f eb1a b6be b2dc 693f 5a42 71be
00000210: 4515 ae3f 25b9 183f d067 813a 5c51 a2bf
00000220: b80b 77be 04cb 083f df46 c0bf 0e89 a03f
00000230: ac77 9a3f 1831 7dbe 820b 9dbf f384 46bf
00000240: b57b c53e 835c de3f c8fd e1b9 92ec 7dbe
00000250: 4f1b 07c0 fd4b 0140 bc3b 70be 4396 c43f
00000260: 3499 46bf 0731 3c3f 7ba3 2fbe 7452 ab3c
00000270: 9c6f 933d 2d44 703d 83f6 80bf 0df1 8ebf
00000280: 97ec c83e b21b 023f 6c88 313f 584f 57bf
00000290: 1c72 143f 5131 cb3e be69 a63e a1b7 cabd
000002a0: 05ca c9bc 02b0 823f 7878 103f 8a8e 363f
000002b0: f9a4 b23f 0b1d 553f f428 643f cadd f2be
000002c0: a181 fb3d b5a0 8f3e 7796 773f 6a3e 18c0
000002d0: a794 d4bf eee1 cd3e def7 28c0 3bb8 da3d
000002e0: 0e83 093e f63e b6bf 1c4a acbf 06d4 d03e
000002f0: 80be 3240 cb5d 2f3f dc49 853f 4d7b cd3e
00000300: 1172 d83e abba 68bf 949e d4bd fd9e 6a3f
00000310: 145b 3fbd f313 6a3f 62a6 a43e 4769 28bf
00000320: c16b bebe 7953 7f3f 0be2 c6be d3a9 263f
00000330: 0cf8 fdbe eed0 18be e2a4 80bf 61a5 ce3e
00000340: d588 68bf b62a 28be c1b8 ac3e c09d a73f
00000350: d697 c9be 110a 2c3f 6f40 07bf cce6 a63f
00000360: 8a4b 6ebf e9fb 1d3f 8a6d 0a40 e13b 3fbf
00000370: 597e f0bf bd86 a73f ce02 d5bf 7e7a 2b3f
00000380: 9755 993f 68da 3cbe 607c 8d3f 3d05 8cbf
00000390: fec1 2c3f d353 953f 8bb7 20bf d960 663e
000003a0: 5a3f ddbe d97a f2bf 4e03 51bf 3611 b1be
000003b0: 71d0 b1be 8af4 3c3e 00b7 453e 4a4f 7bbb
000003c0: 0a75 353e 741e f93e de6e bebe a69c 143f
000003d0: b374 e13f 7ae9 dfbf 4666 dfbf ec96 b9bf
000003e0: 8c1c 45bf 1519 753f f8f5 e63e de01 b33f
000003f0: 9465 a2bf 8776 90bf 16bc a73f cd9f 9cbe

blstm/1/b5 f4 [128]
0.70602405 0.17005435 -0.35131598 0.89215225 0.27231443 -0.09417644 -0.27604404 0.7775455
0.9655781 0.43121433 -0.08321973 0.26050702 0.22328928 0.7266225 0.15531671 0.33391103
0.8756157 1.1708338 0.85533065 0.3912861 0.068780355 0.06378901 0.21780394 1.1615752
-0.4224533 -0.053940915 0.06007309 -0.40641147 0.08687273 0.5873866 0.050297827 -0.4182864
-0.16464517 -0.953495 -0.16823561 0.8717455 -0.17122272 -0.32074305 0.5191511 0.07685408
0.8044098 0.19319274 -0.14188275 0.096876405 -0.18971898 0.37255463 -0.1403898 -0.14312382
0.49773523 0.80246747 0.36706752 1.021639 -0.631026 -0.8033056 0.15824056 -0.67205125
0.037059344 0.82954806 0.10412992 -0.083830975 -0.18584767 -0.10732186 0.91552526 -0.5112254
0.12925452 0.6677391 0.27283224 0.10396548 0.5349914 0.5518133 0.3538641 -0.09737093
0.5228822 0.3873175 0.23927632 0.44289875 0.6377194 0.44692308 0.53058565 0.61990833
0.19027212 -0.4379196 0.13412343 0.853233 0.44920692 0.58018297 0.93991953 1.5369425
0.2932546 -0.44080937 -0.13232434 -0.11779487 0.3989874 -0.41585138 -0.09344933 0.6109114
0.7243567 1.1965622 -0.23189192 1.4429228 0.37262025 0.67979425 0.4077641 0.5621076
0.25418836 -0.30595088 -0.8829906 0.35055545 0.43296248 -0.7680919 1.5501969 0.9446788
-0.023990188 0.26963592 0.5137565 0.10543013 -0.23166099 -0.37076005 0.24862789 0.72442883
-0.028439417 -0.31536606 -0.04588907 0.006786295 0.17854518 0.42959958 0.44197634 0.053773873
00000000: febd 343f ba22 2e3e b0df b3be 1764 643f
00000010: cc6c 8b3e 94df c0bd a555 8dbe 390d 473f
00000020: 2030 773f 20c8 dc3e 1b6f aabd 2d61 853e
00000030: f2a5 643e ef03 3a3f 580b 1f3e 63f6 aa3e
00000040: 5a28 603f e2dd 953f f3f6 5a3f a756 c83e
00000050: b7dc 8c3d d0a3 823d ff07 5f3e 7fae 943f
00000060: cd4b d8be 26f1 5cbd 330f 763d 2a15 d0be
00000070: 54ea b13d f85e 163f 1805 4e3d a329 d6be
00000080: be98 28be 4018 74bf f545 2cbe b72a 5f3f
00000090: 0255 2fbe 6f38 a4be 16e7 043f ac65 9d3d
000000a0: cded 4d3f 51d4 453e b649 11be 2367 c63d
000000b0: b145 42be 7bbf be3e 58c2 0fbe 0d8f 12be
000000c0: 27d7 fe3e 826e 4d3f 46f0 bb3e 11c5 823f
000000d0: ec8a 21bf 70a5 4dbf d009 223e 8d0b 2cbf
000000e0: 8acb 173d 435d 543f 1142 d53d 93af abbd
000000f0: da4e 3ebe 90cb dbbd dd5f 6a3f abdf 02bf
00000100: 4c5b 043e f3f0 2a3f abb0 8b3e dbeb d43d
00000110: 32f5 083f a343 0d3f ad2d b53e 696a c7bd
00000120: 9cdb 053f 7b4e c63e da04 753e a0c3 e23e
00000130: 9441 233f 1ad3 e43e 76d4 073f 50b2 1e3f
00000140: b2d6 423e ff36 e0be a757 093e 7a6d 5a3f
00000150: 73fe e53e df86 143f 919e 703f 88ba c43f
00000160: 7825 963e c4b1 e1be 0880 07be 703e f1bd
00000170: 1448 cc3e 79ea d4be 5d62 bfbd b164 1c3f
00000180: 716f 393f f328 993f 1375 6dbe b2b1 b83f
00000190: 15c8 be3e ff06 2e3f 75c6 d03e 49e6 0f3f
000001a0: fa24 823e 98a5 9cbe ac0b 62bf 017c b33e
000001b0: 42ad dd3e aca1 44bf da6c c63f 78d6 713f
000001c0: 1287 c4bc b80d 8a3e 8c85 033f c1eb d73d
000001d0: 8a38 6dbe 43d4 bdbe 4f98 7e3e 2b74 393f
000001e0: c8f9 e8bc a977 a1be 2df6 3bbd 925f de3b
000001f0: 8cd4 363e 7af4 db3e b94a e23e fe41 5c3d
