nblstm_crf.model (npz, 664653 bytes, 35 tensors)

blstm/blstm/0/b6 f4 [128]
0	0xbe730f04	-0.23736197
1	0xbb445cd9	-0.0029962568
2	0x3e04efd5	0.12982114
3	0xbe71bfe4	-0.23608357
4	0x3dfa4379	0.12219901
5	0xbd2b3fbe	-0.041808836
6	0xbe7f6c46	-0.24943647
7	0xbdfc80fe	-0.12329291
8	0x3e122d21	0.14275028
9	0xbd487a3f	-0.048944708
10	0xbe817d37	-0.25290844
11	0x3dcd1ed4	0.100156456
12	0x3e3332bc	0.17499822
13	0xbcf7781a	-0.030208636
14	0x3da1591a	0.07878323
15	0xbdd8dc2a	-0.10588868
16	0x3dc93302	0.09824182
17	0x3d94c53f	0.07264184
18	0x3d8790df	0.06619429
19	0xbc586b76	-0.013209214
20	0xbd0384b0	-0.032108963
21	0x3e58ef9d	0.21185155
22	0x3daed8f1	0.08537472
23	0xbe00c3bb	-0.12574665
24	0x3e08510c	0.13312167
25	0x3e784dc3	0.24248414
26	0xbdeefe54	-0.11669603
27	0x3e62947b	0.22126953
28	0xbd8e6cf2	-0.069543734
29	0x3d5a49d7	0.053293075
30	0x3d05f37e	0.032702915
31	0x3dc93a6c	0.09825596
32	0x3c5b8771	0.013398991
33	0xbe303b37	-0.17210089
34	0xbe4b3e52	-0.19847992
35	0x3dbfd228	0.09366256
36	0x3e958c37	0.29208538
37	0x3e790316	0.24317583
38	0xbd2c4552	-0.042058297
39	0xbe7197dc	-0.23593086
40	0x3e6c7a20	0.23093462
41	0xbe594c8f	-0.21220611
42	0x3ebd34ec	0.3695444
43	0x3dd222f7	0.10260575
44	0xbc535c5c	-0.012900438
45	0x3c6bf5c1	0.014401854
46	0x3e3ce986	0.18448457
47	0x3ddba42b	0.10724672
48	0xbea6efe1	-0.32604888
49	0xbc0e970a	-0.008703003
50	0x3d705e01	0.0586834
51	0xbf083d5e	-0.5321864
52	0xbe3c060b	-0.1836168
53	0x3c1f76ef	0.009732946
54	0xbe12ff83	-0.14355282
55	0x3e276c6d	0.16349955
56	0xbe2fd4b2	-0.1717098
57	0x3ec99966	0.39374846
58	0xbc99afc8	-0.018760577
59	0xbd6c8518	-0.057744116
60	0xbe2d94be	-0.16951272
61	0xbecb5bcc	-0.39718473
62	0xbce13c36	-0.027494531
63	0x3d031f15	0.032012064
64	0x3c53b06a	0.012920478
65	0xbe84ec4b	-0.25961527
66	0x3e1fc5f0	0.15602851
67	0xbf43e7f4	-0.7652581
68	0x3d6e4dcb	0.058179658
69	0x3e08dc4d	0.13365288
70	0x3dbb894e	0.09157048
71	0xbdc5a876	-0.09651272
72	0x3e566ca1	0.20939876
73	0xbd7bc48b	-0.061466735
74	0x3ea9f953	0.33198032
75	0x3e16a4d9	0.14711322
76	0xbe195422	-0.149735
77	0xbbcb20a6	-0.0061989604
78	0x3e26171f	0.16219757
79	0x3efab413	0.4896551
80	0x3e14f073	0.14544849
81	0x3df9af68	0.12191659
82	0xbe1099d3	-0.1412118
83	0x3dd4c790	0.10389626
84	0xbe354ad7	-0.1770433
85	0x3ec00255	0.3750178
86	0xbd9841b8	-0.0743441
87	0x3e496899	0.19668807
88	0xbd94be41	-0.072628506
89	0x3e9d3bb5	0.30709615
90	0x3ed95773	0.4244953
91	0xbc0a7586	-0.008450871
92	0xbde41316	-0.11136453
93	0xbd3992a5	-0.045305867
94	0x3be600b8	0.0070191287
95	0xbe6f1a23	-0.23349814
96	0xbda7627b	-0.081730805
97	0xbd345bbf	-0.04403281
98	0x3f2cc6c9	0.6749082
99	0xbe0e8fb3	-0.13922004
100	0x3d6976fb	0.056998234
101	0x3e5347d3	0.20632868
102	0xbe46db22	-0.1941953
103	0x3e4b0b5d	0.19828553
104	0xbec4e57a	-0.38456327
105	0x3e4ad46f	0.198076
106	0xbe03ca4e	-0.12870142
107	0xbccc27bb	-0.024921289
108	0x3e8a3602	0.2699433
109	0x3d8bca1a	0.06825657
110	0xbec85450	-0.39126825
111	0x3de26703	0.11054804
112	0xbe8b5ea5	-0.27220646
113	0x3d039548	0.032124788
114	0xbed727e0	-0.4202261
115	0xbe6b80e5	-0.22998388
116	0x3dbb9c13	0.09160628
117	0xbe229e8a	-0.1588079
118	0xbdd3c935	-0.103411116
119	0x3df17162	0.11789204
120	0x3da6b64d	0.0814024
121	0x3e019337	0.12653814
122	0xbd3261f1	-0.043550435
123	0x3e8ebf38	0.27880263
124	0x3d057a6f	0.032587465
125	0x3dad9087	0.08474832
126	0xbe5208b5	-0.20511134
127	0x3db0d881	0.08635045

blstm/blstm/0/w1 f4 [128, 36]
0	0xbf429bce	-0.7601899
1	0xbeb8c3cd	-0.36086884
2	0x3f989430	1.1920223
3	0xbdce429d	-0.10071299
4	0x3f98ff95	1.1952997
5	0xbee1e2dc	-0.44118392
6	0xbcd30206	-0.0257578
7	0x3ddd831f	0.10816025
8	0xbd98f5be	-0.074687466
9	0x3f7a5c81	0.977974
10	0x3e47c719	0.19509543
11	0x3fccf522	1.6012309
12	0xbf968b91	-1.1761342
13	0x3d68853a	0.05676768
14	0x3eb6c267	0.35695192
15	0xbf98d62b	-1.1940359
16	0xbe988ee8	-0.2979653
17	0xbd045a8b	-0.03231291
18	0x3fa0abb2	1.2552397
19	0x3eeb587f	0.45965955
20	0xbea317ff	-0.31854245
21	0x3c22444e	0.00990398
22	0xbed893c2	-0.4230023
23	0xbcc7b537	-0.024378402
24	0xbf1bcbde	-0.6085795
25	0x3f3cbef4	0.7372887
26	0x3e077bcd	0.1323082
27	0x3f8b5402	1.0885012
28	0x3fb063aa	1.3780415
29	0x3c041538	0.0080617
30	0x3fcdc916	1.6076992
31	0x3fc54fdf	1.5415
32	0xbdacb87d	-0.08433626
33	0xbe6e1af7	-0.23252474
34	0x3e93ee11	0.28892568
35	0x3fbf61b0	1.4951687
36	0x3ee1e648	0.44121003
37	0xbfe1c091	-1.7636892
38	0x3f9b6626	1.2140548
39	0x3f6c2f5d	0.9225977
40	0x3ebd6399	0.3699005
41	0x4003e6c4	2.0609598
42	0x3f2dd0a5	0.6789649
43	0x3f323249	0.6960798
44	0x3e1b753b	0.15181439
45	0xbe6925d5	-0.22768338
46	0xbd23b8dc	-0.039971218
47	0x3fd6b8fb	1.6775202
48	0x3f8ae0f5	1.0849901
49	0xbf747ac2	-0.95499814
50	0xbf84d28b	-1.0376753
51	0x40060d11	2.0945475
52	0xc010809f	-2.2578504
53	0x3eabf37e	0.33584207
54	0xbfc1a438	-1.512824
55	0xbe98692f	-0.2976775
56	0x3f386f6a	0.72045004
57	0xbea5bcbe	-0.3237056
58	0x3ea74768	0.32671666
59	0x3f43a79c	0.76427627
60	0x3f8d3e5f	1.1034659
61	0xbf464dc4	-0.7746241
62	0x3e8600ad	0.2617239
63	0x401207a2	2.2817159
64	0xbef6eac6	-0.48225993
65	0x3f757560	0.95882225
66	0x3e9c84e7	0.30570146
67	0x3eaad875	0.3336827
68	0x3f392ae0	0.7233105
69	0x3f1fa3e4	0.6235945
70	0x3f9c50d6	1.2212169
71	0x3fa9e7a4	1.3273816
72	0xbf288799	-0.65831906
73	0x3fa83236	1.3140323
74	0x3ee6e4a7	0.45096323
75	0x3f1d7502	0.61506665
76	0x3faa45da	1.3302567
77	0x3e658b6b	0.22416465
78	0x3fb6005c	1.421886
79	0xbfe6fe28	-1.8046312
80	0xbf1b1963	-0.6058561
81	0xbf86152e	-1.0475214
82	0xbf41f2b3	-0.75760955
83	0x3fbe9695	1.4889704
84	0xbd0c4135	-0.034241874
85	0xbdca5bac	-0.09880766
86	0x3f012138	0.5044131
87	0x3d082b7c	0.033244595
88	0xbfa21498	-1.2662535
89	0x3f8570c7	1.0425042
90	0xbed0f808	-0.40814233
91	0x3f8666ea	1.0500157
92	0xbe3b5ef3	-0.18297939
93	0xbf655843	-0.895878
94	0x3f0fdd04	0.5619662
95	0xbfb25f0c	-1.3935256
96	0xbe321964	-0.17392498
97	0xc00109ad	-2.0162156
98	0x3ecad530	0.39615774
99	0x3e2272a7	0.15864049
100	0xbe887eba	-0.26659185
101	0x3fbf6149	1.4951564
102	0xbf576239	-0.8413425
103	0x3e1dfdd7	0.15428863
104	0x3f6485f9	0.89266926
105	0x3dd0ba75	0.10191814
106	0x3e9ba926	0.30402488
107	0x3f35706f	0.70874685
108	0x3ebdf7aa	0.37103015
109	0x3f3ee684	0.7457049
110	0x3fa44449	1.2833339
111	0x3fd62f0d	1.6733109
112	0xbf3d1b7d	-0.7387007
113	0x3e0ee4b2	0.13954428
114	0x3fd14f24	1.6352277
115	0x3fe1098e	1.7581041
116	0xbeb5d652	-0.35515076
117	0xbea4af93	-0.32165202
118	0xbfc11799	-1.5085326
119	0x3f92bbe4	1.146359
120	0x3ddf9bc3	0.10918381
121	0x3ee52654	0.44755805
122	0xbf10243a	-0.5630528
123	0xbedbee90	-0.42955446
124	0xc02c9196	-2.6963859
125	0x3e489189	0.19586767
126	0xbef1c3ca	-0.47219688
127	0xbf2a8459	-0.66608196
128	0x3faedc00	1.3660889
129	0xbf26ffba	-0.6523396
130	0xbf4b58dd	-0.7943247
131	0xbdb5c57d	-0.088755585
132	0xbed70741	-0.41997722
133	0x3fbdd7b3	1.4831451
134	0xbdb0a6a2	-0.08625533
135	0x3e1001ce	0.14063188
136	0xbe697a70	-0.22800612
137	0x3e99537a	0.299465
138	0x3f327c7a	0.69721186
139	0xbf6775b8	-0.90414
140	0x3eed8ca0	0.4639635
141	0xbdb0679c	-0.08613512
142	0x3f29ee14	0.66378903
143	0x3f8ac30d	1.0840775
144	0xc02cc2f9	-2.6994002
145	0xbf6f9931	-0.93593127
146	0xbd634976	-0.05548998
147	0x3fce61a0	1.6123543
148	0xbd36ba3e	-0.04461121
149	0x3f8888c8	1.0666742
150	0x3fb72004	1.4306645
151	0x3e903f20	0.2817316
152	0xc005e3cc	-2.0920286
153	0xc016a3bb	-2.3537433
154	0xbec587c8	-0.38580155
155	0xbf85ba6d	-1.0447518
156	0xc02eafbb	-2.7294757
157	0xbeb302db	-0.34963116
158	0xbfb9cc6c	-1.451551
159	0x3ca497c1	0.020091893
160	0xbfbeda8b	-1.4910444
161	0xbecc8a91	-0.39949468
162	0xbed76203	-0.42066965
163	0xbf11271a	-0.5670029
164	0x3f14e714	0.581651
165	0xbffb8199	-1.9648925
166	0xbedbf9b4	-0.42963946
167	0xbe5e2787	-0.21694766
168	0xbf29bbe0	-0.663023
169	0xbf256157	-0.64601654
170	0xbf9186ce	-1.1369264
171	0xbf7644b9	-0.9619861
172	0xbe02a6a4	-0.12758881
173	0x3f233932	0.6375915
174	0x3edec041	0.43506053
175	0x3e8ccdec	0.27500856
176	0xbf9714ae	-1.1803186
177	0x3e8f90b6	0.28040093
178	0xbf201347	-0.62529415
179	0xbff14ab2	-1.885092
180	0xc0168d7d	-2.3523858
181	0x3fba73f3	1.4566635
182	0x3f0ab2bb	0.5417897
183	0x3e53c69c	0.20681232
184	0xbfdc52ef	-1.7212809
185	0x3f17f3cf	0.593564
186	0xbf510746	-0.81651723
187	0x3f1c4c84	0.61054254
188	0x3f1c4a97	0.61051315
189	0x3ea6795a	0.3251446
190	0x3f7c8060	0.98633385
191	0xbec1cc91	-0.37851384
192	0xbf8f4788	-1.1193705
193	0xbeb3c251	-0.3510919
194	0x3f470dad	0.7775524
195	0x3f3160ef	0.69288534
196	0x3f920f56	1.141093
197	0x3e81a216	0.25318974
198	0xbe849b81	-0.2589989
199	0xbf790500	-0.97273254
200	0x3ee965c3	0.4558545
201	0x3f127d47	0.5722241
202	0x3f290d45	0.6603587
203	0xbf2d706a	-0.67749655
204	0xbf2f334d	-0.68437654
205	0x3f4dbf84	0.80370355
206	0xbf9c3253	-1.2202858
207	0x3f539e87	0.8266377
208	0xbeb72840	-0.35772896
209	0xbf34aeca	-0.70579207
210	0xbf8eb36c	-1.1148505
211	0xbd831e0d	-0.06402216
212	0x3ed7b714	0.42131865
213	0xbea844a5	-0.32864872
214	0xbe9a150a	-0.30094177
215	0xbf2945ce	-0.6612214
216	0x3fe28813	1.7697777
217	0xbe8b5791	-0.27215245
218	0x3f96d6f9	1.1784354
219	0x3f0fb230	0.5613127
220	0x3ff72b07	1.9310006
221	0x3e73cee6	0.23809394
222	0xbe423360	-0.1896491
223	0x3ee7ab35	0.45247808
224	0x3f32f000	0.6989746
225	0xc04e7ed5	-3.2264912
226	0x3e38ec94	0.18058997
227	0xbf186a0d	-0.5953682
228	0x3eb49ec6	0.35277385
229	0x3f1386d6	0.5762762
230	0xbe9ed980	-0.31025314
231	0xbee510af	-0.4473929
232	0x3f49154b	0.78548115
233	0xbee112ef	-0.43959758
234	0x3d164816	0.03668984
235	0x3f54bff4	0.831054
236	0xbf533c7a	-0.82514155
237	0x3f072f63	0.5280668
238	0x3ac6e19e	0.001517344
239	0xbdd64f85	-0.10464386
240	0x3f4ae187	0.7925038
241	0x3e7d043b	0.24708645
242	0x3e3961f9	0.1810378
243	0xbe1608e5	-0.1465183
244	0x3f6e428d	0.930703
245	0x3f1ca28e	0.6118554
246	0xbd79913d	-0.060929526
247	0x3ed23b1f	0.4106073
248	0x3ea35dbc	0.3190745
249	0x3f4794a3	0.77961177
250	0x3f752729	0.9576288
251	0x3f92bc90	1.1463795
252	0xbf4bcdab	-0.796107
253	0xbff200a6	-1.8906448
254	0xbf1dacca	-0.6159178
255	0x3f4881d0	0.7832308

blstm/blstm/0/b4 f4 [128]
0	0xbf7d322f	-0.989047
1	0xbf89b15c	-1.0757251
2	0xbf37fc76	-0.718696
3	0xbf8796ae	-1.0592859
4	0x3d4bcfc1	0.049758676
5	0xbf3204f2	-0.69538796
6	0xbf490f5c	-0.7853906
7	0xbf1d5351	-0.61455256
8	0xbface6a9	-1.3507892
9	0xbf8b6724	-1.0890851
10	0xbf2c7bf7	-0.67376655
11	0xbf8b9d3b	-1.0907358
12	0xbfa60ee0	-1.297329
13	0xbf578c1a	-0.84198153
14	0xbf25d33d	-0.6477545
15	0xbf681b2f	-0.9066648
16	0xbf80f63e	-1.0075147
17	0xbf50eb20	-0.8160877
18	0xbf0fc4e7	-0.56159824
19	0xbf7bbd6b	-0.98335904
20	0xbf2971ab	-0.6618907
21	0xbf8a835b	-1.0821337
22	0xbee4c97f	-0.4468498
23	0xbf3c4336	-0.73540056
24	0xbf58b5ee	-0.846526
25	0xbf88eacc	-1.0696654
26	0xbf3d08b7	-0.7384142
27	0xbeb84251	-0.35988095
28	0xbf0ee0c1	-0.558117
29	0xbf2afce2	-0.6679212
30	0xbf5332c9	-0.82499367
31	0xbe9b3226	-0.30311698
32	0xbeb03c61	-0.34421065
33	0xbf7f8342	-0.9980966
34	0xbf81665b	-1.0109361
35	0xbf6bd02e	-0.9211453
36	0xbf8ec647	-1.115426
37	0xbf68a8db	-0.90882653
38	0xbf7e913a	-0.9944035
39	0xbdd4600f	-0.10369884
40	0xbf6ef850	-0.93347645
41	0xbf3bae95	-0.73313266
42	0xbf2edfde	-0.68310344
43	0xbf848991	-1.0354482
44	0xbf309b69	-0.6898714
45	0xbf32719d	-0.6970461
46	0xbf8050ed	-1.0024697
47	0xbf7336e8	-0.95005655
48	0xbf5ebe41	-0.87009054
49	0xbf2cdbc5	-0.6752284
50	0xbf8e7216	-1.1128566
51	0xbf2028a6	-0.62562025
52	0xbf6d594a	-0.9271437
53	0xbf19f658	-0.60141516
54	0xbf8ca86a	-1.0988896
55	0xbf0673e8	-0.5252061
56	0xbf21ec0b	-0.632508
57	0xbf780d31	-0.9689513
58	0xbf75dad5	-0.96037036
59	0xbf3038cb	-0.6883666
60	0xbf76bc8b	-0.96381444
61	0xbf121106	-0.57057226
62	0xbf86e5f7	-1.053893
63	0xbf2fdd06	-0.6869663
64	0xbf0c017b	-0.5468976
65	0xbf1ad2cc	-0.604779
66	0xbf0e1134	-0.55495
67	0xbf2e70b0	-0.681407
68	0xbe7df313	-0.24799757
69	0xbf340938	-0.70326567
70	0xbf57b8a2	-0.842661
71	0xbf690087	-0.9101643
72	0xbf8e5b87	-1.1121682
73	0xbf8dbee6	-1.1073883
74	0xbfa768ce	-1.3078859
75	0xbf188f2d	-0.5959347
76	0xbf9279db	-1.1443437
77	0xbf8369b1	-1.026663
78	0xbe05a7e1	-0.13052322
79	0xbf3620b7	-0.7114367
80	0xbeb359fc	-0.3502959
81	0xbf52c2dc	-0.8232858
82	0xbf86541b	-1.0494417
83	0xbf54ae0d	-0.8307808
84	0xbf9160ce	-1.1357667
85	0xbf6652d4	-0.89970136
86	0xbf685848	-0.90759706
87	0xbf4cb382	-0.7996141
88	0xbf275f45	-0.65379745
89	0xbec27a7c	-0.37984073
90	0xbf47b94f	-0.78017133
91	0xbf8091de	-1.0044515
92	0xbf737230	-0.9509611
93	0xbf7fe75d	-0.9996241
94	0xbf8344b7	-1.0255345
95	0xbf643e82	-0.8915788
96	0xbf38c219	-0.7217117
97	0xbe7f79cb	-0.24948804
98	0xbf45a214	-0.77200437
99	0xbf4487ac	-0.7676952
100	0xbf5c3db6	-0.86031663
101	0xbf88cf03	-1.0688175
102	0xbf4959c5	-0.786526
103	0xbf7bc8c6	-0.9835323
104	0xbf2847f1	-0.65734774
105	0xbf162c05	-0.5866092
106	0xbf944526	-1.1583602
107	0xbf0612f1	-0.5237265
108	0xbf8c1dac	-1.0946555
109	0xbf4e7739	-0.8065067
110	0xbf7606e9	-0.96104294
111	0xbf15deda	-0.5854317
112	0xbf8fa78f	-1.122301
113	0xbf6773a7	-0.90410846
114	0xbf07a4bf	-0.5298576
115	0xbf79c71f	-0.9756946
116	0xbf6732fd	-0.90312177
117	0xbec27648	-0.37980866
118	0xbf9c6fc7	-1.2221612
119	0xbf156663	-0.58359355
120	0xbf45e857	-0.7730765
121	0xbf95138c	-1.164659
122	0xbf387c0c	-0.7206428
123	0xbf41ced8	-0.75706244
124	0xbeaf14e3	-0.34195623
125	0xbf8df454	-1.1090188
126	0xbf4ea9ff	-0.80728143
127	0xbf73645b	-0.95075005

blstm/blstm/1/b0 f4 [128]
0	0xbf4dd001	-0.80395514
1	0xbf286002	-0.65771496
2	0xbed1e13d	-0.40992156
3	0xbfa257e6	-1.2683074
4	0xbf278f01	-0.6545258
5	0xbf4fd3d4	-0.811826
6	0xbf3e274f	-0.7427873
7	0xbf305040	-0.6887245
8	0xbf3ac8e9	-0.72962815
9	0xbf633cd6	-0.88764703
10	0xbf93a190	-1.153368
11	0xbf29f25e	-0.6638545
12	0xbf739e6e	-0.9516362
13	0xbf40d1ed	-0.7532032
14	0xbf35e900	-0.71058655
15	0xbefba792	-0.49151284
16	0xbfa392c6	-1.2779167
17	0xbf72537c	-0.9465864
18	0xbfbaf104	-1.4604802
19	0xbf2be65f	-0.67148393
20	0xbf86d44c	-1.0533538
21	0xbf36c370	-0.71391964
22	0xbf0a2b12	-0.5397197
23	0xbf2255ed	-0.6341236
24	0xbf59df3e	-0.85106266
25	0xbf02d014	-0.5109875
26	0xbed2786d	-0.41107503
27	0xbf49f119	-0.7888351
28	0xbf237640	-0.6385231
29	0xbee93ba0	-0.45553303
30	0xbf7345ea	-0.95028555
31	0xbf150b28	-0.5822015
32	0xbf85b110	-1.044466
33	0xbf4bcab5	-0.7960618
34	0xbf7d2673	-0.98886794
35	0xbf510956	-0.8165487
36	0xbf5831d3	-0.84451026
37	0xbeda33b8	-0.42617583
38	0xbf048523	-0.5176565
39	0xbf335daf	-0.70064825
40	0xbf249aec	-0.6429889
41	0xbf67c40b	-0.9053351
42	0xbf1b21f3	-0.6059868
43	0xbf0e49b8	-0.55581236
44	0xbf6b6e02	-0.91964734
45	0xbf51b614	-0.81918454
46	0xbf73c201	-0.952179
47	0xbf66443a	-0.89947855
48	0xbefcfa80	-0.49409866
49	0xbf22109b	-0.6330659
50	0xbf8bab93	-1.0911735
51	0xbf5aaa87	-0.85416454
52	0xbf827af6	-1.0193775
53	0xbf72d7f9	-0.948608
54	0xbf17f938	-0.5936465
55	0xbf7df322	-0.99199116
56	0xbf084678	-0.53232527
57	0xbf9a1531	-1.2037717
58	0xbf62cfc1	-0.8859826
59	0xbf3118ab	-0.69178265
60	0xbf63b2fc	-0.88944983
61	0xbf43b7ba	-0.7645222
62	0xbf9d7106	-1.2300117
63	0xbf2ba697	-0.6705107
64	0xbef869cb	-0.48518214
65	0xbf217f87	-0.63085216
66	0xbf1c7b31	-0.61125475
67	0xbf113bc7	-0.5673184
68	0xbece974f	-0.40349814
69	0xbe988b70	-0.29793882
70	0xbf673dc9	-0.9032865
71	0xbf29be62	-0.66306126
72	0xbf0c7018	-0.5485854
73	0xbf8acb7f	-1.0843352
74	0xbeecae56	-0.46226758
75	0xbf568098	-0.8378997
76	0xbf3eac04	-0.74481225
77	0xbec5f007	-0.3865969
78	0xbefd710e	-0.49500316
79	0xbf43bb94	-0.76458097
80	0xbf4ea7df	-0.807249
81	0xbf410846	-0.7540325
82	0xbecb1d5a	-0.3967083
83	0xbfa4bc03	-1.2869877
84	0xbf332def	-0.69991964
85	0xbf41bbd8	-0.7567725
86	0xbf2d3205	-0.6765445
87	0xbf9236b2	-1.1422942
88	0xbf012246	-0.5044292
89	0xbee0f470	-0.4393649
90	0xbf1c635d	-0.61089116
91	0xbe7735c5	-0.24141605
92	0xbf956981	-1.1672822
93	0xbf331bff	-0.69964594
94	0xbf69a7ae	-0.91271484
95	0xbf413a37	-0.75479454
96	0xbfb686e5	-1.4259917
97	0xbf731a68	-0.9496217
98	0xbf2c11e9	-0.6721483
99	0xbf5fa7c2	-0.87365353
100	0xbf4803d4	-0.7813084
101	0xbf3a8821	-0.72863966
102	0xbf1f35cd	-0.6219147
103	0xbf6757d1	-0.9036837
104	0xbfa147b7	-1.2600011
105	0xbed8e6aa	-0.42363483
106	0xbf081181	-0.5315171
107	0xbf19af63	-0.60033244
108	0xbf3552c6	-0.7082943
109	0xbf359004	-0.70922875
110	0xbfa9b4a4	-1.3258252
111	0xbf0eb737	-0.55748314
112	0xbf4778c0	-0.77918625
113	0xbeb2827a	-0.3486517
114	0xbe7666a6	-0.24062595
115	0xbf37ece4	-0.7184584
116	0xbf600015	-0.87500125
117	0xbf8d96ee	-1.1061685
118	0xbef3b74d	-0.47600785
119	0xbf09dc57	-0.53851837
120	0xbf51b682	-0.8191911
121	0xbed18fdb	-0.40930066
122	0xbebfaf6d	-0.37438527
123	0xbf4e5850	-0.80603504
124	0xbf3fdc43	-0.7494547
125	0xbf5183f0	-0.81841946
126	0xbf03c22e	-0.5146817
127	0xbf5806e1	-0.84385496

blstm/blstm/1/b6 f4 [128]
0	0x3d65d628	0.05611244
1	0xbed3a9fd	-0.41340628
2	0xbeae2957	-0.34015915
3	0xbc581490	-0.013188496
4	0xbcb009ea	-0.021489102
5	0x3e7c8e6a	0.24663702
6	0x3e0bd3f8	0.13655078
7	0xbecd3992	-0.40082985
8	0x3d547e25	0.051878113
9	0x3de537ad	0.1119226
10	0xbd3b52f2	-0.0457334
11	0xbee6a6c6	-0.45049113
12	0x3e811775	0.2521321
13	0xbe58724a	-0.21137348
14	0xbf0d6c6d	-0.5524357
15	0x3e879808	0.26483178
16	0x3e080e61	0.13286735
17	0x3dd4d641	0.10392428
18	0x3e86a23a	0.26295644
19	0x3ebf0752	0.37310272
20	0x3e1f0a4e	0.15531275
21	0x3e9a9605	0.3019258
22	0xbeee4e9c	-0.4654435
23	0x3e9043d7	0.28176758
24	0x3e913182	0.28358084
25	0x3d2b27ef	0.04178613
26	0x3e69a24d	0.22815819
27	0xbe832d6c	-0.25620592
28	0x3cc7b158	0.024376556
29	0xbd61a49f	-0.055088636
30	0x3c6f2de2	0.014598342
31	0x3e541fcd	0.20715256
32	0x3dea1033	0.11428871
33	0x3e8ef1e6	0.2791893
34	0x3e51a0e4	0.20471531
35	0xbe0f9d5b	-0.1402487
36	0xbe422dfd	-0.18962856
37	0x3e59edc4	0.21282107
38	0xbe5415ff	-0.20711516
39	0xbd8b337c	-0.06796929
40	0x3d6e02a4	0.058107987
41	0xbf1606f0	-0.58604336
42	0xbe6505b8	-0.22365463
43	0x3f15ba26	0.58487165
44	0x3d877e9e	0.06615947
45	0x3d9fb2d7	0.07797783
46	0xbe84f8d1	-0.25971082
47	0xbd6095f3	-0.054830503
48	0x3df08e79	0.117459245
49	0xbddca96c	-0.10774502
50	0x3e1c6abe	0.15275094
51	0xbe051a5e	-0.1299834
52	0x3ea37f53	0.31933078
53	0xbeadc6f1	-0.33940843
54	0xbd6db904	-0.058037773
55	0x3ae1112c	0.0017171255
56	0xbc44cec4	-0.012012187
57	0x3e634265	0.22193296
58	0xbeb60ac4	-0.3555509
59	0xbe06fd9f	-0.13182686
60	0xbd399c2d	-0.045314956
61	0xbed68856	-0.4190089
62	0xbec39c5f	-0.3820524
63	0xbcbd95fc	-0.023142807
64	0xbe8f1463	-0.2794524
65	0x3ea56809	0.32305935
66	0xbd6a9e82	-0.05728007
67	0xbdf15e15	-0.11785523
68	0xbf4e5a29	-0.80606323
69	0xbe089a55	-0.13340123
70	0x3ec6d40a	0.38833648
71	0xbebebf1b	-0.37255177
72	0x3f216dd6	0.6305822
73	0x3e5bfa71	0.21482255
74	0x3c959d62	0.018263523
75	0x3d899710	0.06718266
76	0xbe4c450d	-0.19948216
77	0xbdedf7ee	-0.116195545
78	0xbebc684e	-0.36798328
79	0xbebadc19	-0.36496046
80	0x3c327c16	0.010893842
81	0x3e0a7f93	0.13525228
82	0x3e9bd4aa	0.30435687
83	0xbde61809	-0.11235053
84	0x3e906797	0.28204033
85	0x3ea664c2	0.32498747
86	0x3ed5c342	0.41750532
87	0xbd15b945	-0.03655364
88	0x3eafebcd	0.3435959
89	0xbeba996d	-0.3644518
90	0xbe1cdeb9	-0.15319337
91	0x3e8c269c	0.27373207
92	0xbe66b73f	-0.2253084
93	0xbd12173a	-0.03566668
94	0xbe1b5b2f	-0.15171503
95	0x3ecabc5c	0.39596832
96	0xbdd70b80	-0.1050024
97	0xbd8cb275	-0.068699755
98	0x3e743407	0.23847972
99	0x3e980c88	0.2969706
100	0x3e771b86	0.24131593
101	0x3cfa24c0	0.030535102
102	0xbdc25502	-0.0948887
103	0xbe164cb5	-0.14677699
104	0x3e95d5c0	0.2926464
105	0xbeb70549	-0.3574622
106	0xbea1a7e5	-0.31573406
107	0x3ae1d734	0.0017230273
108	0x3e24a6aa	0.16079202
109	0x3e277bc6	0.1635581
110	0x3eaa9f45	0.33324638
111	0xbe1a88ad	-0.150912
112	0xbd74f25b	-0.05980144
113	0x3ca6e8b6	0.020374637
114	0x3f18e274	0.5972054
115	0x3d045f88	0.03231767
116	0x3db24bf3	0.087058924
117	0xbe7ea54e	-0.24867746
118	0xbe75f197	-0.2401794
119	0xbdaf8c4e	-0.08571683
120	0x3e23c481	0.15992929
121	0xbc40b775	-0.01176249
122	0x3e1a82f2	0.15089014
123	0xbea34042	-0.31884962
124	0xbe7cef41	-0.24700643
125	0x3e54b010	0.20770288
126	0x3e4b5670	0.19857192
127	0xbaa8bbcb	-0.001287335

blstm/blstm/0/b5 f4 [128]
0	0x3f9abb02	1.208832
1	0x3f134347	0.5752453
2	0x3eff283f	0.49835393
3	0x3f1166f2	0.5679771
4	0x3ed75ddd	0.420638
5	0xbf37c918	-0.7179122
6	0x3f0d3574	0.5515969
7	0xbeae1b82	-0.34005362
8	0x3e90560a	0.28190643
9	0x3d8bd520	0.0682776
10	0xbb9e8994	-0.004838178
11	0x3f821c65	1.0164915
12	0x3f1aefa8	0.60521936
13	0x3f035311	0.51298624
14	0x3ed041e7	0.4067528
15	0xbe885fab	-0.2663549
16	0x3d891017	0.06692522
17	0x3eaae748	0.3337958
18	0x3d91a680	0.071118355
19	0x3e963122	0.2933436
20	0x3c353668	0.011060335
21	0x3ee47dd9	0.44627264
22	0x3efe3897	0.4965255
23	0x3e852695	0.26005998
24	0x3dae959d	0.0852463
25	0x3e62ba49	0.22141375
26	0x3dadccde	0.08486341
27	0x3e3f0c19	0.18656959
28	0xbec98eee	-0.3936686
29	0x3f04ea5b	0.519201
30	0x3f1dc5ae	0.6162976
31	0x3eea4f02	0.45763403
32	0x3f185a9b	0.5951325
33	0x3e8ad533	0.27115783
34	0x3e40f88c	0.18844813
35	0x3e3173cf	0.17329334
36	0x3ec3bc83	0.3822976
37	0x3f565eb6	0.8373827
38	0x3f4ca87f	0.79944605
39	0xbe7076cb	-0.23482816
40	0x3e97cf34	0.2965027
41	0x3dd5f096	0.10446279
42	0x3eb9f03b	0.36316094
43	0x3ef6045b	0.48050198
44	0x3f1b6c27	0.607119
45	0x3e0684e1	0.13136627
46	0x3e2dac6b	0.16960303
47	0x3ec4ac70	0.3841281
48	0x3f402ba5	0.75066596
49	0x3f05707e	0.52124774
50	0x3eb2e095	0.34936967
51	0x3ef3165a	0.4747799
52	0x3f51e68a	0.819924
53	0x3dc04d9b	0.09389802
54	0x3e9aece5	0.3025886
55	0x3e813af4	0.2524029
56	0x3eb37827	0.35052606
57	0x3ebadb48	0.36495423
58	0x3ecfbe35	0.40574804
59	0x3eb6de33	0.357164
60	0x3f1e908f	0.6193933
61	0x3e8c83c7	0.27444288
62	0x3e9a0300	0.30080414
63	0x3e5c48cd	0.21512146
64	0x3e38369c	0.17989582
65	0xbe3c24d9	-0.18373431
66	0x3e91329b	0.2835892
67	0x3f4fb0bf	0.8112907
68	0x3e0de960	0.13858557
69	0x3ee65fae	0.44994873
70	0x3ebb3617	0.36564705
71	0xbe062d6e	-0.13103268
72	0x3ea8bcf8	0.32956672
73	0x3e94e059	0.29077414
74	0xbd288abe	-0.04114794
75	0x3ed228f3	0.41046867
76	0x3f7bb1ab	0.98317975
77	0xbd8e320d	-0.0694314
78	0x3e000b52	0.12504318
79	0x3e6aa34a	0.22913852
80	0x3f29dcc4	0.66352487
81	0x3ea55f28	0.3229916
82	0x3f145e3a	0.5795628
83	0x3ea8cd0c	0.32968938
84	0x3f22eda3	0.63643855
85	0x3f9374f1	1.1520063
86	0x3e56e12c	0.20984334
87	0x3e8a956b	0.27067122
88	0x3f3a1a69	0.7269655
89	0x3f3ee242	0.7456399
90	0x3edbd981	0.4293938
91	0x3ebdbec7	0.37059614
92	0xbd533ebe	-0.051573507
93	0x3f94c6c0	1.1623154
94	0x3eed2356	0.46316022
95	0x3eb648fa	0.35602552
96	0x3ed574c7	0.41690657
97	0x3e8266f7	0.2546918
98	0x3f009428	0.5022607
99	0x3dc06cf0	0.09395778
100	0x3f1f6070	0.62256527
101	0x3ebfef34	0.37487185
102	0xbdce9df4	-0.10088721
103	0x3eccd949	0.40009525
104	0x3f113d41	0.5673409
105	0x3f5bd754	0.8587544
106	0x3f47b0d2	0.7800418
107	0x3ef33c47	0.47506925
108	0x3ec475a5	0.38371006
109	0x3ebefea4	0.3730365
110	0x3ee65d56	0.44993085
111	0x3f02c55e	0.5108241
112	0x3f1b5187	0.60671276
113	0xbe62451e	-0.22096679
114	0x3f2d8333	0.6777832
115	0x3d22d45d	0.039753307
116	0x3f9a8e2e	1.207464
117	0xbf85c828	-1.0451708
118	0xbee7f95a	-0.45307428
119	0xbe07a531	-0.1324661
120	0x3ec36bb4	0.38168108
121	0x3e6e5d9e	0.232779
122	0x3f1a9539	0.60383946
123	0x3f0f34a2	0.55939686
124	0x3e0ecdc2	0.13945678
125	0x3f5041ee	0.813506
126	0x3f34e7a6	0.7066597
127	0x3f168587	0.58797497

blstm/blstm/1/w5 f4 [128, 128]
0	0xbed788f7	-0.42096683
1	0xbf71b01a	-0.94409335
2	0x3e9bd90f	0.3043904
3	0x3ef0d191	0.47034886
4	0x3f55ce97	0.83518356
5	0xbf1a631a	-0.60307467
6	0x3f38454d	0.71980745
7	0x3f4cdcff	0.80024713
8	0xbf88835e	-1.066509
9	0x3e22ff59	0.1591772
10	0x3eee70cf	0.4657044
11	0x3ea7f4ad	0.3280386
12	0x3ec24ad5	0.37947717
13	0xbd110323	-0.035403382
14	0x3f811926	1.00858
15	0xbfc6e4ab	-1.5538534
16	0x3e9d58dc	0.30731857
17	0x3fc70f85	1.5551611
18	0x3ff908f2	1.9455855
19	0x3dc919c8	0.098193705
20	0xbfa51de6	-1.2899749
21	0x3f6bc5aa	0.92098486
22	0xbfbf023e	-1.4922559
23	0xbfe45791	-1.7839223
24	0xbd779dc4	-0.06045319
25	0xbee7cb14	-0.45272124
26	0x3fc31e91	1.5243703
27	0xbe888e75	-0.26671186
28	0xc01b7bf8	-2.4294415
29	0xbf036802	-0.5133058
30	0xbf27b5b0	-0.6551161
31	0xbd92d98e	-0.071704015
32	0x3e704d45	0.23466976
33	0x3eacf492	0.33780342
34	0xbef66ef9	-0.4813154
35	0xbefb54e2	-0.49088198
36	0x3cfa7109	0.030571477
37	0xbe28ef10	-0.16497445
38	0xbffdabeb	-1.981809
39	0x3fb7db54	1.4363809
40	0x3f9c20fd	1.2197567
41	0xbea8042d	-0.32815686
42	0xbf0f3436	-0.5593904
43	0xbe2a0a21	-0.16605426
44	0xbca4426d	-0.020051206
45	0xbe342cd8	-0.17595232
46	0xc00bb541	-2.1829379
47	0x3e273fcb	0.16332929
48	0xbc3083dc	-0.010773625
49	0x3e19e3e3	0.15028338
50	0x3f6dd86f	0.92908376
51	0x3f426e72	0.75949776
52	0x3fc20844	1.5158772
53	0x3ed57922	0.4169398
54	0xbef8e7f8	-0.48614478
55	0x3fd2316d	1.6421334
56	0xbf09549f	-0.53644747
57	0x3e37f862	0.17965844
58	0xbfde747b	-1.7379297
59	0x3f03b0c6	0.5144161
60	0x3f65db32	0.8978759
61	0xbff6adfd	-1.9271847
62	0xbf5005ee	-0.8125905
63	0xbf7e789e	-0.994028
64	0xbf5061c1	-0.8139916
65	0x3f932e8a	1.1498578
66	0x3f97c5b7	1.1857213
67	0x3f0cae4f	0.54953474
68	0xbf68d3d3	-0.9094822
69	0x3e49ee31	0.19719769
70	0x3d810103	0.06299021
71	0x3e16ddae	0.14733002
72	0xbf89472f	-1.0724849
73	0xbfb5e6ba	-1.4211037
74	0x3bdcb617	0.006735574
75	0x3e28c163	0.16480021
76	0xbebce6a3	-0.36894712
77	0x3e5ab399	0.21357574
78	0xbf1a14c4	-0.60187936
79	0xbf9138f1	-1.1345502
80	0xbedd7307	-0.4325182
81	0x3faac65b	1.3341783
82	0x3f92e13b	1.1474985
83	0xbf8957e4	-1.0729947
84	0xbf493d91	-0.7860957
85	0xbf29c1db	-0.66311425
86	0x3f9f8d67	1.2465028
87	0x3f7eea2c	0.9957607
88	0x3f3375e1	0.70101744
89	0x3efd1cb9	0.49435976
90	0x3e135b76	0.14390358
91	0xbe6375d1	-0.22212912
92	0x3f09f1f1	0.538848
93	0x3f3fc440	0.7490883
94	0x3f56c447	0.83893245
95	0x3f085386	0.53252447
96	0xbfbda3d1	-1.4815618
97	0xbec6d6b4	-0.3883568
98	0x3fbccf30	1.4750729
99	0xbec8f351	-0.39248136
100	0xbee7fc42	-0.45309645
101	0xbeafe097	-0.34351036
102	0xbdb1d283	-0.0868273
103	0xbf960994	-1.1721673
104	0x36626240	3.3733813e-06
105	0x3ea2842c	0.31741464
106	0x3f277c73	0.6542427
107	0x3f9ad37c	1.209579
108	0x3ec1f617	0.37883064
109	0xbeb25a13	-0.34834346
110	0xbb5af1e3	-0.0033408336
111	0xbf90c43f	-1.130989
112	0xbe86ff6d	-0.2636675
113	0xbec323f4	-0.38113368
114	0x3fa60333	1.2969726
115	0xbf98ba0d	-1.1931778
116	0x3faf2a66	1.3684814
117	0x3e488258	0.19580972
118	0xbee03aa7	-0.43794748
119	0xbfc202b1	-1.5157071
120	0x3fc423d3	1.5323433
121	0xbf46b020	-0.77612495
122	0x3dacd4a7	0.08438998
123	0xbf9a7b02	-1.2068789
124	0xbf97e117	-1.1865567
125	0xbe2a1f3a	-0.16613474
126	0x3eafafcb	0.34313807
127	0x3f1e0f41	0.61742026
128	0x3fc3f857	1.5310162
129	0xbeb61aeb	-0.35567412
130	0x3f69dcb2	0.9135238
131	0xbe71425a	-0.23560467
132	0x3fae1545	1.3600241
133	0x3f18b925	0.5965751
134	0x3a8167d0	0.0009872857
135	0xbfa2515c	-1.2681079
136	0xbe770bb8	-0.24125564
137	0x3f08cb04	0.5343478
138	0xbfc046df	-1.5021628
139	0x3fa0890e	1.2541826
140	0x3f9a77ac	1.2067771
141	0xbe7d3118	-0.24725759
142	0xbf9d0b82	-1.2269137
143	0xbf4684f3	-0.77546614
144	0x3ec57bb5	0.38570943
145	0x3fde5c83	1.7371982
146	0xb9e1fdc8	-0.00043104426
147	0xbe7dec92	-0.24797276
148	0xc0071b4f	-2.1110418
149	0x40014bfd	2.020263
150	0xbe703bbc	-0.23460287
151	0x3fc49643	1.5358356
152	0xbf469934	-0.7757752
153	0x3f3c3107	0.7351231
154	0xbe2fa37b	-0.17152207
155	0x3cab5274	0.02091334
156	0x3d936f9c	0.07199022
157	0x3d70442d	0.058658767
158	0xbf80f683	-1.007523
159	0xbf8ef10d	-1.1167313
160	0x3ec8ec97	0.39243004
161	0x3f021bb2	0.5082351
162	0x3f31886c	0.6934879
163	0xbf574f58	-0.84105444
164	0x3f14721c	0.5798662
165	0x3ecb3151	0.39686063
166	0x3ea669be	0.3250255
167	0xbdcab7a1	-0.09898306
168	0xbcc9ca05	-0.024632463
169	0x3f82b002	1.0209963
170	0x3f107878	0.5643382
171	0x3f368e8a	0.7131125
172	0x3fb2a4f9	1.3956596
173	0x3f551d0b	0.8324744
174	0x3f6428f4	0.8912499
175	0xbef2ddca	-0.47434837
176	0x3dfb81a1	0.12280584
177	0x3e8fa0b5	0.28052297
178	0x3f779677	0.96713966
179	0xc0183e6a	-2.3788095
180	0xbfd494a7	-1.6607865
181	0x3ecde1ee	0.40211433
182	0xc028f7de	-2.6401286
183	0x3ddab83b	0.106796704
184	0x3e09830e	0.134289
185	0xbfb63ef6	-1.4237964
186	0xbfac4a1c	-1.3460116
187	0x3ed0d406	0.4078676
188	0x4032be80	2.7928772
189	0x3f2f5dcb	0.6850249
190	0x3f8549dc	1.0413165
191	0x3ecd7b4d	0.40133134
192	0x3ed87211	0.42274526
193	0xbf68baab	-0.9090983
194	0xbdd49e94	-0.10381809
195	0x3f6a9efd	0.91648847
196	0xbd3f5b14	-0.04671772
197	0x3f6a13f3	0.9143669
198	0x3ea4a662	0.3215819
199	0xbf286947	-0.6578564
200	0xbebe6bc1	-0.37191585
201	0x3f7f5379	0.99736744
202	0xbec6e20b	-0.38844332
203	0x3f26a9d3	0.6510288
204	0xbefdf80c	-0.49603307
205	0xbe18d0ee	-0.1492345
206	0xbf80a4e2	-1.0050318
207	0x3ecea561	0.4036055
208	0xbf6888d5	-0.9083379
209	0xbe282ab6	-0.16422543
210	0x3eacb8c1	0.33734706
211	0x3fa79dc0	1.3095016
212	0xbec997d6	-0.39373654
213	0x3f2c0a11	0.6720286
214	0xbf07406f	-0.5283269
215	0x3fa6e6cc	1.3039184
216	0xbf6e4b8a	-0.93084013
217	0x3f1dfbe9	0.6171251
218	0x400a6d8a	2.1629357
219	0xbf3f3be1	-0.7470074
220	0xbff07e59	-1.8788558
221	0x3fa786bd	1.3087994
222	0xbfd502ce	-1.6641481
223	0x3f2b7a7e	0.66983783
224	0x3f995597	1.1979245
225	0xbe3cda68	-0.1844269
226	0x3f8d7c60	1.1053581
227	0xbf8c053d	-1.0939099
228	0x3f2cc1fe	0.6748351
229	0x3f9553d3	1.1666206
230	0xbf20b78b	-0.62780064
231	0x3e6660d9	0.22497882
232	0xbedd3f5a	-0.43212396
233	0xbff27ad9	-1.894374
234	0xbf51034e	-0.8164567
235	0xbeb11136	-0.34583443
236	0xbeb1d071	-0.3472934
237	0x3e3cf48a	0.18452659
238	0x3e45b700	0.1930809
239	0xbb7b4f4a	-0.003834682
240	0x3e35750a	0.17720428
241	0x3ef91e74	0.48656046
242	0xbebe6ede	-0.3719396
243	0x3f149ca6	0.58051527
244	0x3fe174b3	1.7613739
245	0xbfdfe97a	-1.7493126
246	0xbfdf6646	-1.7453086
247	0xbfb996ec	-1.4499183
248	0xbf451c8c	-0.76996684
249	0x3f751915	0.957414
250	0x3ee6f5f8	0.45109534
251	0x3fb301de	1.3984945
252	0xbfa26594	-1.2687249
253	0xbf907687	-1.1286172
254	0x3fa7bc16	1.3104274
255	0xbe9c9fcd	-0.30590668

blstm/blstm/0/b7 f4 [128]
0	0xbf60bd52	-0.8778888
1	0xbf1a20f1	-0.60206515
2	0xbf3d7b31	-0.740161
3	0xbf551af3	-0.83244246
4	0xbf814d2e	-1.0101678
5	0xbf442a78	-0.766273
6	0xbf62275e	-0.8834132
7	0xbf4e1b4d	-0.8051041
8	0xbed18611	-0.40922597
9	0xbf03e7db	-0.5152566
10	0xbf12d46e	-0.5735539
11	0xbf33ea01	-0.70278937
12	0xbf58285b	-0.8443658
13	0xbf56d998	-0.8392577
14	0xbf6e9375	-0.9319375
15	0xbf5d46f0	-0.8643637
16	0xbf419cd2	-0.75629914
17	0xbf0d71f8	-0.5525203
18	0xbf565d2e	-0.8373593
19	0xbf206c58	-0.6266532
20	0xbf650c0f	-0.89471525
21	0xbf39884b	-0.7247359
22	0xbf4a8956	-0.7911581
23	0xbf508874	-0.8145821
24	0xbf50acab	-0.8151347
25	0xbf1ca463	-0.61188334
26	0xbf3d501c	-0.7395036
27	0xbf53f71d	-0.8279894
28	0xbf172d06	-0.59053075
29	0xbf404c95	-0.75116855
30	0xbf3ca4e0	-0.7368908
31	0xbf3f6efe	-0.74778736
32	0xbf77c314	-0.9678204
33	0xbf30d605	-0.6907657
34	0xbf14f59d	-0.58187276
35	0xbf5ef1c2	-0.87087643
36	0xbf0e1772	-0.55504525
37	0xbf2abb71	-0.6669226
38	0xbf61f456	-0.8826345
39	0xbf2c7694	-0.67368436
40	0xbf0bc13e	-0.5459174
41	0xbf44c22f	-0.768588
42	0xbf158a6a	-0.5841433
43	0xbf40d950	-0.7533159
44	0xbf4505b2	-0.76961815
45	0xbf3c013b	-0.7343938
46	0xbf362d97	-0.71163315
47	0xbf5a7a65	-0.8534301
48	0xbf3e1765	-0.7425445
49	0xbf2b0b7b	-0.6681439
50	0xbf6d0464	-0.92584825
51	0xbf2a2cb8	-0.66474485
52	0xbf46ae43	-0.7760965
53	0xbf815153	-1.0102943
54	0xbf3f815d	-0.7480677
55	0xbf04332e	-0.51640594
56	0xbf5ffd4a	-0.87495863
57	0xbf480117	-0.7812666
58	0xbf4c5667	-0.7981934
59	0xbf692766	-0.9107574
60	0xbf6d0055	-0.9257863
61	0xbf5db77f	-0.8660812
62	0xbea1e05f	-0.31616494
63	0xbf491223	-0.785433
64	0xbf3bd40c	-0.7337043
65	0xbf4a6359	-0.7905784
66	0xbe26ddcf	-0.16295551
67	0xbe85f59c	-0.26163948
68	0xbf5ecf10	-0.870347
69	0xbf656330	-0.89604473
70	0xbf1d554b	-0.6145827
71	0xbedb25d2	-0.42802292
72	0xbf74d24d	-0.95633394
73	0xbf2ff696	-0.68735635
74	0xbf142f30	-0.578845
75	0xbf5f2b36	-0.8717531
76	0xbf645aec	-0.89201236
77	0xbf229140	-0.63502884
78	0xbf508425	-0.81451637
79	0xbebcbf7c	-0.3686484
80	0xbf6ec595	-0.93270236
81	0xbf69cecd	-0.9133118
82	0xbf58a420	-0.84625435
83	0xbf514bf3	-0.81756514
84	0xbf41f488	-0.7576375
85	0xbf49cdbd	-0.78829557
86	0xbeea427e	-0.45753855
87	0xbf6c0e82	-0.9220964
88	0xbf60cf49	-0.8781629
89	0xbf1625f2	-0.5865165
90	0xbf045348	-0.5168958
91	0xbf371cf6	-0.71528566
92	0xbefa1241	-0.48842052
93	0xbf40b970	-0.75282955
94	0xbf2f660e	-0.685151
95	0xbf073677	-0.5281748
96	0xbf4ee7a3	-0.808222
97	0xbf6f4963	-0.93471354
98	0xbee3cacf	-0.44490668
99	0xbf57f115	-0.84352237
100	0xbf038d1f	-0.5138721
101	0xbf48a8ed	-0.7838276
102	0xbefa5ecb	-0.48900446
103	0xbf362b20	-0.71159554
104	0xbefa1779	-0.48846033
105	0xbf351476	-0.70734346
106	0xbf551ce8	-0.8324723
107	0xbf28a788	-0.6588063
108	0xbebf4a3f	-0.37361333
109	0xbf3da62b	-0.7408168
110	0xbf250218	-0.6445632
111	0xbf3de29e	-0.74173915
112	0xbf5dbae3	-0.8661329
113	0xbf1d5c8f	-0.6146936
114	0xbee75038	-0.4517839
115	0xbef6cd25	-0.48203388
116	0xbf16554a	-0.5872389
117	0xbf7fcefb	-0.999252
118	0xbf2cc39a	-0.67485964
119	0xbf20fb6b	-0.62883633
120	0xbf646492	-0.8921596
121	0xbf2e3bbd	-0.68059903
122	0xbf633d54	-0.88765454
123	0xbf758404	-0.95904565
124	0xbee9b205	-0.4564363
125	0xbf523228	-0.8210778
126	0xbf3ba012	-0.7329112
127	0xbf2d96be	-0.6780814

blstm/blstm/0/w6 f4 [128, 128]
0	0xbf86f265	-1.0542723
1	0x3f7145d8	0.942472
2	0xbe5cf725	-0.21578653
3	0x3f929e01	1.1454469
4	0x3fb8f970	1.4451122
5	0xbd1f59a6	-0.038903855
6	0xc00886c2	-2.133225
7	0xbf712040	-0.94189835
8	0x401781bd	2.3672936
9	0x3cf0b786	0.029384386
10	0xbec54038	-0.38525558
11	0x3fb566d3	1.4172004
12	0x3f1cb179	0.612083
13	0x3e7deb76	0.24796852
14	0xbf8f40e2	-1.1191676
15	0x3d4fb018	0.050705045
16	0x3eb79291	0.3585401
17	0x3ee2a966	0.44269866
18	0xbf79ed82	-0.97628033
19	0x3e5732be	0.2101545
20	0xbe46a62a	-0.19399324
21	0xbed9eb43	-0.42562303
22	0x3f92e627	1.1476487
23	0xbe35fa28	-0.17771208
24	0x3f3be4e1	0.73396116
25	0xbf1df06e	-0.6169499
26	0x3e22cd4e	0.1589863
27	0xbe98c558	-0.2983806
28	0x3f3211d2	0.6955844
29	0x3f6397bc	0.88903403
30	0xbf93ed88	-1.1556864
31	0xbfc1da87	-1.5144814
32	0xbe180c0a	-0.14848343
33	0x3e4a7494	0.19771034
34	0xbe6ea944	-0.23306757
35	0xbd426740	-0.047461748
36	0xbf6fc87a	-0.9366528
37	0xbf7c194e	-0.9847611
38	0x3f7f6ab1	0.99772173
39	0x3f4601ae	0.77346313
40	0x3c6e49cc	0.014543962
41	0xbf5d0b03	-0.8634493
42	0xbee3c097	-0.44482872
43	0xbebd3064	-0.36950982
44	0xbe8fe82a	-0.28106815
45	0x3d117ead	0.035521198
46	0x3f09ced5	0.53831226
47	0x3f3aef8c	0.7302177
48	0x3d6c8042	0.057739504
49	0x3fa9ae73	1.3256363
50	0x3f2e9cf5	0.6820825
51	0x3d6e099a	0.058114626
52	0xbf95a3e0	-1.1690636
53	0x3f11a5b2	0.56893456
54	0xbfa1f085	-1.2651526
55	0x3e48c75e	0.19607303
56	0xbee98fe0	-0.4561758
57	0xbf3c8079	-0.73633534
58	0x3edf0639	0.43559435
59	0xbed52a2e	-0.41633743
60	0xbfc93210	-1.5718403
61	0x3f3a95fb	0.728851
62	0xbe6d7de4	-0.23192555
63	0x3f156a21	0.58365065
64	0x3edf1fa4	0.43578827
65	0xbf1ee3b4	-0.620662
66	0xbf6bd4c9	-0.9212156
67	0x3f9278fd	1.1443173
68	0x3f89ab6f	1.0755442
69	0x3ead4cec	0.3384775
70	0x3e1c58e9	0.15268292
71	0xbe3e527d	-0.18586154
72	0xbf1dd1ec	-0.6164844
73	0xbf760dfe	-0.961151
74	0x3f34a56e	0.70564926
75	0x3e15bc26	0.14622554
76	0xbf6a48aa	-0.91517127
77	0xbeef50fa	-0.46741468
78	0xbf1a8d42	-0.6037179
79	0xbe12c409	-0.14332594
80	0xbe54801f	-0.20752
81	0xbbabc775	-0.005242283
82	0x3f5d5b71	0.86467654
83	0xbebd36c0	-0.36955833
84	0x3f598799	0.8497253
85	0xbf8a2056	-1.0791118
86	0x3f752873	0.95764846
87	0xbfce8c5e	-1.6136587
88	0x3e478149	0.19482912
89	0x3fc64a47	1.5491418
90	0xbfb76711	-1.4328328
91	0xbf0d5ddc	-0.55221343
92	0x3ea94721	0.3306208
93	0xbd8798ae	-0.06620918
94	0x3f6fec40	0.93719864
95	0x3db26151	0.08709968
96	0x3f8301a8	1.023488
97	0x3c8f23a7	0.017473055
98	0x3d75046c	0.05981867
99	0x3d98e91b	0.07466336
100	0x3e1a2601	0.1505356
101	0xbec5d364	-0.3863784
102	0xbe955309	-0.29164913
103	0x3f513454	0.8172047
104	0xbe6c2741	-0.23061849
105	0x3f899ab8	1.0750341
106	0x3e27b9ea	0.16379514
107	0xbf8051ac	-1.0024924
108	0x3fc0113a	1.5005257
109	0x3ef0c8f2	0.4702831
110	0x3fac632f	1.3467768
111	0xbe9f1a90	-0.31074953
112	0x3e4a0415	0.1972812
113	0xbf7b96d2	-0.9827701
114	0xbe66f2e5	-0.22553594
115	0x3e25967e	0.1617069
116	0xbf00ee34	-0.5036347
117	0xbe8c0e9c	-0.27354896
118	0x3ea4c791	0.32183507
119	0x3e55ddce	0.20885393
120	0xbe8d0e01	-0.27549747
121	0xbf7f36ad	-0.99692804
122	0x3f4de057	0.8042044
123	0xbf10e18c	-0.5659416
124	0x3ed4d50c	0.41568792
125	0xbd037fc2	-0.03210426
126	0x3ce8a961	0.028401079
127	0x3f06c7c8	0.5264859
128	0x3b52dc12	0.003217463
129	0xbd52fc10	-0.051509917
130	0x3f78ea37	0.97232383
131	0xbd944040	-0.07238817
132	0xbf28d1f2	-0.6594535
133	0x3c2cfbb7	0.01055806
134	0xbf38d341	-0.7219735
135	0xbfa2cb26	-1.2718246
136	0x3f905aa6	1.1277664
137	0xbf852ffb	-1.0405267
138	0x3ef35141	0.4752293
139	0xbd489db3	-0.04897852
140	0xbed3d868	-0.41376042
141	0x3fa4abd4	1.2864938
142	0xbec29998	-0.38007808
143	0x3f75e942	0.9605905
144	0x3f67046a	0.9024111
145	0x3e88804b	0.2666038
146	0x3f407f0a	0.75193846
147	0xbeb45c72	-0.3522678
148	0x3ef85a8b	0.4850658
149	0x3f56a0c6	0.8383907
150	0xbe70d52e	-0.23518822
151	0xbcaaf7e7	-0.020870162
152	0xbeb5e1be	-0.3552379
153	0x3f169a01	0.5882874
154	0x3cc57174	0.02410195
155	0x3dd26f10	0.1027509
156	0xbf4f2bbf	-0.80926126
157	0xbf190ab3	-0.5978195
158	0x3cc3d029	0.02390297
159	0xbf97d9a9	-1.18633
160	0xbc952fa8	-0.0182112
161	0xbd016366	-0.031588934
162	0xbf36aa28	-0.7135339
163	0x3d6a8788	0.05725816
164	0xbf9f168b	-1.2428755
165	0xbece345d	-0.40274325
166	0x3f6c8db0	0.924037
167	0x3ea082e6	0.31349868
168	0xbf59548d	-0.8489464
169	0xbed4ca9c	-0.4156083
170	0xbd33937b	-0.04384182
171	0xbee579eb	-0.4481958
172	0xbf30a060	-0.6899471
173	0xbfa9f8be	-1.3279035
174	0xbf858e72	-1.0434096
175	0x3eaaebf3	0.3338314
176	0xbfa5e097	-1.2959164
177	0xbd3ada82	-0.04561854
178	0xbe0318e5	-0.12802465
179	0xbe82265e	-0.25419897
180	0x3f1188c9	0.5684934
181	0xbf0ef142	-0.5583688
182	0x3f7fa192	0.9985591
183	0x3fd038d9	1.6267349
184	0x3fd42cce	1.6576173
185	0x3c95a255	0.018265883
186	0x3e39c539	0.1814164
187	0xc0031d45	-2.0486615
188	0xbf0a71f7	-0.54080147
189	0xbefc8e01	-0.4932709
190	0xbfd3c277	-1.6543721
191	0x3f4b6cfa	0.7946316
192	0x3f4fae84	0.81125665
193	0xbe9ebfdf	-0.3100576
194	0x3f2aa0a8	0.6665139
195	0xbec0162e	-0.37516922
196	0xbf41340b	-0.75470036
197	0xbfa0f267	-1.2573975
198	0xbec44aae	-0.38338226
199	0xbf89fb5e	-1.0779836
200	0x3fcb4d99	1.5883056
201	0x3eaa683f	0.33282658
202	0xbf93fab4	-1.1560884
203	0xbcf15abc	-0.02946221
204	0xbcdc8049	-0.02691664
205	0x3f7110b0	0.9416609
206	0xbed0e8c4	-0.40802586
207	0x3e40d186	0.18829927
208	0x3e518d01	0.20463945
209	0xbf428565	-0.75984794
210	0xbf2ea89f	-0.68226045
211	0x3f45dc15	0.77288944
212	0x3f9dce69	1.2328616
213	0x3e0ae996	0.13565668
214	0x3eba7327	0.3641598
215	0xbca608e9	-0.02026792
216	0x3f6bb767	0.92076725
217	0x3f517f07	0.81834453
218	0x3f54fc88	0.8319783
219	0xbef87df2	-0.4853359
220	0xbe815b41	-0.25264934
221	0xbeb58768	-0.3545487
222	0x3e6cc849	0.23123278
223	0xbeb1347f	-0.34610364
224	0xbf72ead0	-0.94889545
225	0x3f3572f0	0.70878506
226	0x3e97edcc	0.29673612
227	0x3f326185	0.69680053
228	0x3f96a098	1.1767759
229	0xbd1fae5e	-0.03898465
230	0xbec0d68d	-0.3766369
231	0x3ed994d6	0.42496365
232	0x3e56c59e	0.20973822
233	0x3f13c067	0.5771546
234	0x3e578ad8	0.21049058
235	0xbf6d249b	-0.9263398
236	0x40105493	2.255162
237	0xbf75947f	-0.9592971
238	0x3e01b5ef	0.12667058
239	0xbe80f4c5	-0.25186744
240	0x3ed309d8	0.41218448
241	0x3e3d4f72	0.18487337
242	0x3da81a6b	0.08208164
243	0xbf4376f4	-0.76353383
244	0xbe7f2a74	-0.24918538
245	0x3d5ea16f	0.054353174
246	0xbed15f3a	-0.40892965
247	0x3e3b528f	0.18293212
248	0x3d4e5d73	0.05038209
249	0x3ddc5764	0.10758856
250	0xbeb6e6c0	-0.35722923
251	0x3e9f90fd	0.31165305
252	0xbf341bee	-0.7035512
253	0x3f2bad7b	0.67061585
254	0xbf53cc8b	-0.8273398
255	0xbf8b35ea	-1.0875828

blstm/blstm/0/w2 f4 [128, 36]
0	0x3f54be2b	0.83102673
1	0x3e647952	0.22311905
2	0x3f67f765	0.9061187
3	0xbf0c9d5d	-0.5492762
4	0xbd8887a2	-0.06666495
5	0x3f24ce6f	0.6437749
6	0xc0132d39	-2.2996352
7	0xc06a644f	-3.6623724
8	0x3f980d11	1.1878988
9	0x3fbfbc6d	1.4979378
10	0x3fa40d5c	1.2816577
11	0x3ea040e0	0.31299496
12	0x3ee9dc62	0.4567595
13	0xbdc4430f	-0.09583103
14	0xbd914a5f	-0.07094263
15	0x3fa24a59	1.2678939
16	0x3eee03c6	0.46487254
17	0x3ecbc056	0.39795178
18	0xbff15de1	-1.8856775
19	0xbf5601b6	-0.8359636
20	0x40077a2d	2.116832
21	0x3fc0caa3	1.506184
22	0x3d3388f4	0.04383178
23	0x3d49959d	0.049214948
24	0xbdfd3f99	-0.12365646
25	0xbf181dd5	-0.5942052
26	0xbc38f6e4	-0.011289332
27	0x3f04821c	0.5176103
28	0x3f968a63	1.1760982
29	0xbedac9e1	-0.42732146
30	0xbe8114a7	-0.2521107
31	0xc037e3cc	-2.8732786
32	0x4082797d	4.07733
33	0x3f2210db	0.6330697
34	0x3e03c759	0.12869014
35	0xbe063f89	-0.13110174
36	0x3f4edb29	0.8080316
37	0x4006b6d0	2.104908
38	0xc0109298	-2.2589474
39	0x407b84fb	3.9299915
40	0x4107e139	8.492486
41	0x3da70d39	0.08156819
42	0x3f0f5b77	0.5599894
43	0xbf818b53	-1.0120643
44	0x3f5e176b	0.86754483
45	0x3fae58a0	1.3620796
46	0xbee81f99	-0.45336607
47	0xbfbbc855	-1.4670511
48	0xbecf6daa	-0.40513355
49	0x40050d0c	2.0789213
50	0xbf5edf4d	-0.8705948
51	0x3efc16ab	0.49236044
52	0x404b68a6	3.1782622
53	0xbf05f469	-0.52326065
54	0xbfadd369	-1.3580142
55	0xbdcfcbd3	-0.10146298
56	0xbe3b9255	-0.1831754
57	0x3e6a42d6	0.22877058
58	0xbf65dcba	-0.89789927
59	0xbf6eb26a	-0.9324099
60	0x3fad6679	1.3546897
61	0x3fba7b1e	1.4568822
62	0xbf3d05f4	-0.7383721
63	0x3f1e4a33	0.6183197
64	0x400a7599	2.1634276
65	0xbefe1fa5	-0.49633518
66	0xbf3d52bd	-0.73954374
67	0xbc78c73a	-0.015184218
68	0xbe777070	-0.24163985
69	0xbf264dd3	-0.649625
70	0xbf0f3d81	-0.5595322
71	0xbdd242d8	-0.10266656
72	0xbf0b0bd0	-0.543149
73	0xbf1549f9	-0.58316
74	0xbfa5cd79	-1.295333
75	0xbf4760b6	-0.77881944
76	0xbe08ee70	-0.13372207
77	0x3f48b14f	0.7839555
78	0xbe1ab8df	-0.15109585
79	0x4039f014	2.9052782
80	0xbeba0013	-0.36328182
81	0xc07d5ac6	-3.9586654
82	0x3fb575b5	1.4176546
83	0xbeb44427	-0.35208246
84	0x3ef338fe	0.4750442
85	0x3fc02271	1.5010511
86	0x3ea232cd	0.31679383
87	0x3fd4a28c	1.6612105
88	0xbee9c6ad	-0.4565939
89	0x3f4ad1e2	0.79226506
90	0xbf2a8794	-0.66613126
91	0x3f1d97c6	0.6155971
92	0xbf9b552e	-1.213537
93	0xbffe8c9d	-1.9886662
94	0x3f15fb80	0.58586884
95	0x3e9b8af1	0.3037944
96	0xbead65f4	-0.33866847
97	0x3fb6deac	1.4286704
98	0xbeeb32db	-0.45937237
99	0x3fc2231f	1.5166968
100	0x3f1d0437	0.61334556
101	0xbf21517b	-0.63014954
102	0xbd99e684	-0.075146705
103	0xbee83cac	-0.4535879
104	0x3f146e7b	0.5798108
105	0xbff44416	-1.9083278
106	0x3c8cec32	0.01720247
107	0x3f61c53b	0.88191575
108	0xbf2566d6	-0.6461004
109	0x3eaef9dc	0.34175003
110	0xbe4f9661	-0.20272209
111	0x3e9eb417	0.30996773
112	0x40152b23	2.3307579
113	0xbf9743f3	-1.1817611
114	0x3f9c78eb	1.2224401
115	0x3e8dd47b	0.27701172
116	0xbea31b44	-0.3185674
117	0xbe452f88	-0.19256413
118	0x409f021f	4.969009
119	0x3d8d8dcd	0.06911812
120	0xbf61b71b	-0.8817002
121	0xbf7447d0	-0.9542208
122	0x3ec77fd3	0.3896471
123	0x3f15ad04	0.58467126
124	0x3fd6b08a	1.6772625
125	0x3e900918	0.28131938
126	0xbeed11c2	-0.4630261
127	0x3f84d9d7	1.037898
128	0x3e61b602	0.22042087
129	0xbfca2c63	-1.5794796
130	0x3ff038d3	1.8767341
131	0x3e84754b	0.25870737
132	0xbd92aadd	-0.07161496
133	0xbf0f26d1	-0.55918604
134	0x3d6f06b3	0.058356
135	0x3e91a631	0.28447106
136	0x3d88dcb5	0.066827215
137	0x3e5ecc44	0.21757609
138	0x3dfbb116	0.12289636
139	0x3e96de89	0.29466656
140	0xbf44e7c1	-0.7691613
141	0xbfda977e	-1.7077482
142	0x3fb53aeb	1.4158605
143	0x3e4a23da	0.19740239
144	0x3fbeca37	1.4905461
145	0xbefecd33	-0.4976593
146	0xc035cb74	-2.8405428
147	0x3ed21810	0.41033983
148	0x3f469550	0.7757158
149	0x3fab6424	1.3389935
150	0x3ef072e7	0.46962664
151	0xbf4dbda5	-0.803675
152	0x3db9d11a	0.09073086
153	0x3ff48049	1.910165
154	0xbf99b686	-1.2008827
155	0x3f596fe3	0.8493635
156	0x3fc132b9	1.5093604
157	0xbe66b7a5	-0.22530992
158	0xbf9f300a	-1.2436535
159	0x3ea78761	0.32720473
160	0x3f4387d3	0.76379126
161	0xbfc24659	-1.5177718
162	0xbe02c308	-0.12769711
163	0xbef08d01	-0.46982577
164	0xbe228c89	-0.15873922
165	0x3f13aeec	0.57688785
166	0xbf8a8b67	-1.0823792
167	0xbee797a1	-0.4523287
168	0x3f6ec1f2	0.9326469
169	0x3f479e72	0.77976143
170	0x3df9dad0	0.12199938
171	0x3e3b7873	0.18307666
172	0x3f299117	0.66237015
173	0xbeec9224	-0.46205246
174	0xbed2b6be	-0.41155046
175	0x3c81fd39	0.015867816
176	0x3f95ae72	1.1693861
177	0xbf9034e9	-1.1266147
178	0xc03b983b	-2.9311664
179	0x3ece8abe	0.40340227
180	0x3fc8e686	1.569535
181	0x3e6bb44b	0.23017995
182	0x3d903a34	0.07042351
183	0x3f0084ca	0.5020262
184	0xbfc46435	-1.5343081
185	0x401ece23	2.4813316
186	0xbf09578f	-0.5364923
187	0x3f8e2926	1.1106308
188	0xbf262760	-0.6490383
189	0x3e98b830	0.29828024
190	0x3f2b3b99	0.66887814
191	0xba5c4a90	-0.00084034447
192	0xbe73cc5d	-0.23808427
193	0x3fbce420	1.4757118
194	0x3ec1ae8c	0.3782848
195	0x3f286dd9	0.65792614
196	0xbf489f0a	-0.78367674
197	0x3fe69286	1.8013465
198	0x3f92bad6	1.1463268
199	0x3e46e758	0.19424188
200	0xbe4b3c18	-0.19847143
201	0xbe845f98	-0.25854182
202	0x3eaeb8c9	0.34125355
203	0x3d94eea8	0.072720826
204	0x3df35008	0.11880499
205	0x3f8950b1	1.072775
206	0xbea9cce1	-0.33164123
207	0x3d9271a1	0.07150579
208	0xbe80ec20	-0.2518015
209	0x401bf969	2.4370978
210	0x3fa5d545	1.295571
211	0xbf5454b5	-0.8294175
212	0x3f061a79	0.52384144
213	0xbe9375aa	-0.28800708
214	0x3fea3a4b	1.829904
215	0xbe7890dc	-0.2427401
216	0x3f35c86f	0.7100896
217	0xbfd61eb7	-1.6728123
218	0x3e82a188	0.25513864
219	0xbe06fe75	-0.13183005
220	0x3f0c6364	0.5483916
221	0xbea7711f	-0.32703492
222	0x407fe249	3.9981863
223	0x3f4f4f6d	0.8098057
224	0xbe93dd45	-0.28879753
225	0xc09301d3	-4.5939727
226	0xbf927389	-1.1441509
227	0x3f7a77c7	0.97839016
228	0x3f7c7ad5	0.98624927
229	0x3e339008	0.17535412
230	0x3f1c7db8	0.6112933
231	0xbedcec4a	-0.43149024
232	0xbe215ca3	-0.15757994
233	0xbf5b0674	-0.8555672
234	0x3fb96e3f	1.448677
235	0x3cd34542	0.02578986
236	0xbfdb2fc8	-1.7123957
237	0xbe974278	-0.295429
238	0x3e1dd960	0.15414953
239	0x3e093aa3	0.13401274
240	0x3f15f5a3	0.58577937
241	0xbe182ce8	-0.1486088
242	0x3ee766cf	0.45195624
243	0x3dd4f90c	0.103990644
244	0x3e6aecab	0.22941844
245	0xbe9708e3	-0.29498968
246	0x3f94f58b	1.1637434
247	0x3ea4ac5f	0.3216276
248	0xbfbbf85e	-1.4685171
249	0xbf430bb1	-0.76189715
250	0x3ed365dc	0.4128865
251	0x3f0b8228	0.5449548
252	0x3f88bfb3	1.0683502
253	0x408f125c	4.470991
254	0x3c8d547b	0.017252197
255	0xbebc06b6	-0.3672387

blstm/blstm/1/b2 f4 [128]
0	0x3d65d628	0.05611244
1	0xbed3a9fd	-0.41340628
2	0xbeae2957	-0.34015915
3	0xbc581490	-0.013188496
4	0xbcb009ea	-0.021489102
5	0x3e7c8e6a	0.24663702
6	0x3e0bd3f8	0.13655078
7	0xbecd3992	-0.40082985
8	0x3d547e25	0.051878113
9	0x3de537ad	0.1119226
10	0xbd3b52f2	-0.0457334
11	0xbee6a6c6	-0.45049113
12	0x3e811775	0.2521321
13	0xbe58724a	-0.21137348
14	0xbf0d6c6d	-0.5524357
15	0x3e879808	0.26483178
16	0x3e080e61	0.13286735
17	0x3dd4d641	0.10392428
18	0x3e86a23a	0.26295644
19	0x3ebf0752	0.37310272
20	0x3e1f0a4e	0.15531275
21	0x3e9a9605	0.3019258
22	0xbeee4e9c	-0.4654435
23	0x3e9043d7	0.28176758
24	0x3e913182	0.28358084
25	0x3d2b27ef	0.04178613
26	0x3e69a24d	0.22815819
27	0xbe832d6c	-0.25620592
28	0x3cc7b158	0.024376556
29	0xbd61a49f	-0.055088636
30	0x3c6f2de2	0.014598342
31	0x3e541fcd	0.20715256
32	0x3dea1033	0.11428871
33	0x3e8ef1e6	0.2791893
34	0x3e51a0e4	0.20471531
35	0xbe0f9d5b	-0.1402487
36	0xbe422dfd	-0.18962856
37	0x3e59edc4	0.21282107
38	0xbe5415ff	-0.20711516
39	0xbd8b337c	-0.06796929
40	0x3d6e02a4	0.058107987
41	0xbf1606f0	-0.58604336
42	0xbe6505b8	-0.22365463
43	0x3f15ba26	0.58487165
44	0x3d877e9e	0.06615947
45	0x3d9fb2d7	0.07797783
46	0xbe84f8d1	-0.25971082
47	0xbd6095f3	-0.054830503
48	0x3df08e79	0.117459245
49	0xbddca96c	-0.10774502
50	0x3e1c6abe	0.15275094
51	0xbe051a5e	-0.1299834
52	0x3ea37f53	0.31933078
53	0xbeadc6f1	-0.33940843
54	0xbd6db904	-0.058037773
55	0x3ae1112c	0.0017171255
56	0xbc44cec4	-0.012012187
57	0x3e634265	0.22193296
58	0xbeb60ac4	-0.3555509
59	0xbe06fd9f	-0.13182686
60	0xbd399c2d	-0.045314956
61	0xbed68856	-0.4190089
62	0xbec39c5f	-0.3820524
63	0xbcbd95fc	-0.023142807
64	0xbe8f1463	-0.2794524
65	0x3ea56809	0.32305935
66	0xbd6a9e82	-0.05728007
67	0xbdf15e15	-0.11785523
68	0xbf4e5a29	-0.80606323
69	0xbe089a55	-0.13340123
70	0x3ec6d40a	0.38833648
71	0xbebebf1b	-0.37255177
72	0x3f216dd6	0.6305822
73	0x3e5bfa71	0.21482255
74	0x3c959d62	0.018263523
75	0x3d899710	0.06718266
76	0xbe4c450d	-0.19948216
77	0xbdedf7ee	-0.116195545
78	0xbebc684e	-0.36798328
79	0xbebadc19	-0.36496046
80	0x3c327c16	0.010893842
81	0x3e0a7f93	0.13525228
82	0x3e9bd4aa	0.30435687
83	0xbde61809	-0.11235053
84	0x3e906797	0.28204033
85	0x3ea664c2	0.32498747
86	0x3ed5c342	0.41750532
87	0xbd15b945	-0.03655364
88	0x3eafebcd	0.3435959
89	0xbeba996d	-0.3644518
90	0xbe1cdeb9	-0.15319337
91	0x3e8c269c	0.27373207
92	0xbe66b73f	-0.2253084
93	0xbd12173a	-0.03566668
94	0xbe1b5b2f	-0.15171503
95	0x3ecabc5c	0.39596832
96	0xbdd70b80	-0.1050024
97	0xbd8cb275	-0.068699755
98	0x3e743407	0.23847972
99	0x3e980c88	0.2969706
100	0x3e771b86	0.24131593
101	0x3cfa24c0	0.030535102
102	0xbdc25502	-0.0948887
103	0xbe164cb5	-0.14677699
104	0x3e95d5c0	0.2926464
105	0xbeb70549	-0.3574622
106	0xbea1a7e5	-0.31573406
107	0x3ae1d734	0.0017230273
108	0x3e24a6aa	0.16079202
109	0x3e277bc6	0.1635581
110	0x3eaa9f45	0.33324638
111	0xbe1a88ad	-0.150912
112	0xbd74f25b	-0.05980144
113	0x3ca6e8b6	0.020374637
114	0x3f18e274	0.5972054
115	0x3d045f88	0.03231767
116	0x3db24bf3	0.087058924
117	0xbe7ea54e	-0.24867746
118	0xbe75f197	-0.2401794
119	0xbdaf8c4e	-0.08571683
120	0x3e23c481	0.15992929
121	0xbc40b775	-0.01176249
122	0x3e1a82f2	0.15089014
123	0xbea34042	-0.31884962
124	0xbe7cef41	-0.24700643
125	0x3e54b010	0.20770288
126	0x3e4b5670	0.19857192
127	0xbaa8bbcb	-0.001287335
